Assignments/Assignment_4/trained_net_lastest.pth (torch_old, 162580 bytes, 10 tensors)

conv1.weight f4 [6, 3, 3, 3]
000000 6e d0 0f be 79 6f 3e 3e 8a fa 56 3a 43 4f ec bd
       -0.14044353 0.18597211 0.00082007854 -0.115385555
000010 99 ce e2 3d 57 1e 24 bd 9e f3 62 3c fa 34 cd bd
       0.110745616 -0.040067997 0.013852028 -0.1001987
000020 d6 e7 26 be 89 d4 02 be 63 14 ad bc 4f ab 0e be
       -0.16299376 -0.12776388 -0.021127885 -0.13932537
000030 3b b1 42 3e 91 df 08 3b 04 e2 96 bd 15 62 9d 3d
       0.1901292 0.002088521 -0.07367328 0.07684723
000040 96 9f 2e be 54 96 c9 bd 25 4b 94 3d 30 6f 27 be
       -0.17053065 -0.09843126 0.07240895 -0.16351008
000050 5c 72 c4 3d 98 6d 89 3c 48 48 24 be 99 93 43 be
       0.09592125 0.016775891 -0.16043198 -0.19099273
000060 60 64 7d 3d 08 ad ba 3d 1d 88 1d bd 35 91 9e bc
       0.061863303 0.09115034 -0.038459886 -0.01935635
000070 7a db e0 3c 0d c9 05 3e 73 2b 49 3e 3b d6 67 3e
       0.027448405 0.13064976 0.19645481 0.22640316
000080 9b f0 37 3e 43 d0 39 3e 0e c3 8f 3e 2d e6 ad 3e
       0.17962877 0.18145852 0.28078502 0.33964673
000090 8a e3 b7 3e 33 fd ba 3e 44 77 c6 3d 58 b5 29 3e
       0.35915786 0.365213 0.09690717 0.16573083
0000a0 93 57 50 3e 16 e1 80 3e 65 ac 9d 3e c6 45 54 3e
       0.20345907 0.25171727 0.3079559 0.20729741
0000b0 8b 64 9d 3d 2f e4 a3 3d 9e 0e ca 3e e9 a7 ed 3d
       0.07685193 0.08002507 0.39464277 0.11604292
0000c0 78 dc 6c 3e ca 1b 05 3e 7d 28 e6 3d 57 77 97 3e
       0.23130977 0.12998882 0.11238191 0.29583237
0000d0 f8 2d a9 3e 96 46 13 3e ae 1e 7d bb 98 17 63 3e
       0.33042884 0.14382395 -0.0038623023 0.22176969
0000e0 74 8f ec bc a3 ec 70 bd 73 21 67 3d 38 89 88 3e
       -0.028876998 -0.058819424 0.056428384 0.2666719
0000f0 9b 1a fd 3d c6 67 d3 3d 4d 6a 46 3d de d4 5a 3e
       0.1235859 0.103225276 0.04844122 0.21370265
000100 24 1d ce ba 84 2b 61 3e 8a bf 1c 3e 41 8d 04 3e
       -0.0015725237 0.21989256 0.15307441 0.12944509
000110 1c 8c 02 3e c3 02 88 bc 63 e1 75 3e 8d 0c 44 3e
       0.1274876 -0.01660288 0.2401176 0.19145413
000120 f3 e4 1f bd e2 96 8f bd 37 71 4b 3d f5 59 81 3e
       -0.039036702 -0.070112005 0.049668517 0.25263944
000130 5f 69 ed 3c 12 fc 94 3e ba 54 a9 3c 1f fc 7a bd
       0.028980909 0.29098564 0.020670284 -0.061275598
000140 12 8a 40 3e 19 e9 ee bd 35 1f fa bc 37 28 7a bd
       0.1880267 -0.116655536 -0.030532459 -0.061073508
000150 43 34 86 bc a7 74 2a be 0a 7c 33 be e5 dd ae 3d
       -0.016382342 -0.16646062 -0.17527786 0.08538417
000160 61 6b 5a bc bb 48 d2 bd 7f 24 b2 bb f2 88 34 be
       -0.013331265 -0.102677785 -0.0054364796 -0.17630365
000170 6a 60 4b 3d 9f b9 b8 3d 5e bd 3f 3e ad 00 20 be
       0.049652494 0.090197794 0.18724582 -0.15625258
000180 8e 1c a9 bc cf 05 e6 3d d9 aa 41 3e 20 8e 0d be
       -0.020643499 0.11231577 0.1891283 -0.13823748
000190 c6 80 a4 3d e7 78 9d 3d 66 f4 e8 3d c7 0b 08 be
       0.08032374 0.07689076 0.1137474 -0.13285743
0001a0 25 35 0c 3e 4a 9b a8 bd 6b 48 e4 bd e8 73 4d 3d
       0.13692148 -0.08232744 -0.11146625 0.050159365
0001b0 05 4b 30 3e 5f dd db bd ef 9f 0e 3e a8 05 cc bc
       0.17216118 -0.107355826 0.13928197 -0.02490504
0001c0 26 e6 99 3d 3d db 3d 3e 66 6b 3c 3d 0c fd 1a be
       0.075146005 0.18540664 0.04600086 -0.15135592
0001d0 71 fa ce bc ee f1 05 3d 77 02 25 be 05 9e 3d 3d
       -0.025265904 0.032701425 -0.16114222 0.046293277
0001e0 04 ab f1 bd 2e 09 29 bd da 85 a9 3d 71 e8 2e be
       -0.11800197 -0.04126852 0.08277483 -0.17080857
0001f0 8f 61 04 be 81 d0 cf 3d 2c 08 4b be ac 22 05 3e
       -0.1292784 0.10147191 -0.19827336 0.13001508
000200 0b 69 0d be c1 af 9c bc f2 db 09 3d 6b fa b0 3d
       -0.13809602 -0.019126775 0.03365702 0.086415134
000210 18 cd 0a be c5 3b 96 3c 60 d1 bf 3d a2 05 29 3e
       -0.135548 0.018339047 0.09366107 0.16506055
000220 dc 4d 14 be 57 f4 c3 bd e0 9a 65 3d a2 84 ca bb
       -0.14482826 -0.095680885 0.056055903 -0.006180362
000230 d4 fc 04 be c1 dc 25 be b6 fb 2e be 0a e6 09 be
       -0.12987071 -0.16197492 -0.17088208 -0.13466659
000240 04 d2 a7 bd 34 d8 08 be cc e0 2c be 9c 05 76 3c
       -0.08194354 -0.13363725 -0.16882628 0.015015986
000250 53 24 e7 3d b0 d4 b9 bd 58 a9 9d 3c 29 7d 1b bb
       0.11286225 -0.0907377 0.019245788 -0.0023725724
000260 ae 3b b8 3d 4e ac 08 be bf b2 15 3c 71 f1 37 3e
       0.08995758 -0.13346979 0.009136855 0.17963196
000270 62 af 0c 3e be 51 43 be db 55 ed bc 9d 5e eb 3a
       0.13738778 -0.19074151 -0.028971603 0.0017957274
000280 8e 24 82 bd b4 78 01 be
       -0.063546285 -0.12643701

conv1.bias f4 [6]
000000 a7 d8 07 be 23 e2 be bd 03 18 72 bc c8 ab e8 bb
       -0.1326624 -0.09320476 -0.014776233 -0.007100556
000010 9e 2f fa 3d 26 f0 f1 bd
       0.122161135 -0.11813383

conv2.weight f4 [8, 6, 3, 3]
000000 33 b7 46 3c d4 c5 a5 3d b6 f3 a2 bd a6 2a 22 3d
       0.012128639 0.08094373 -0.079566404 0.039591454
000010 c0 4e 98 bb e8 3c 99 3d a0 30 b9 3d 33 e1 13 3d
       -0.0046480596 0.0748232 0.090424776 0.03610344
000020 a0 bc 86 3b 5b 6d f6 bd 6d 07 7a 3d f1 d6 c3 3d
       0.0041118413 -0.12032577 0.061042238 0.09562481
000030 eb 27 88 bd 3f 6c 11 be 68 81 ef 3d 9a b3 50 bd
       -0.06648239 -0.14201449 0.11694604 -0.05095253
000040 d9 61 3a 3c 1b 22 3b bd d0 90 b1 3d 60 19 0d 3e
       0.011375868 -0.045686822 0.08670199 0.13779211
000050 83 ec bd 3d af ce 51 bd 48 1e c0 3d 00 81 91 3d
       0.09273627 -0.0512225 0.09380776 0.07104683
000060 af 27 60 3b 64 dd ee bd ba 19 79 bd f2 db 09 be
       0.003420334 -0.11663321 -0.06081555 -0.13462809
000070 e7 9a ba 3d d1 ff 09 3e 23 a9 a2 3d 8e 8a 32 3d
       0.091115765 0.13476492 0.079424165 0.043589167
000080 59 c8 03 3d 0f 56 06 3e b2 0e 8d bd ab cc 3a bd
       0.03217349 0.13118766 -0.068875685 -0.045605343
000090 1b 95 f3 bd 13 60 2d bc 3d fa 3a 3c 9d 4d 21 3d
       -0.11893674 -0.010581988 0.0114122005 0.03938066
0000a0 8d f4 ba bd bd 8a 50 bc c9 a9 e2 bd e5 60 de bd
       -0.091286756 -0.01272839 -0.1106754 -0.10858325
0000b0 e8 6b a4 3c 8e 06 08 be 10 6c 14 3d 26 5e 00 be
       0.020070985 -0.1328375 0.03623587 -0.12535915
0000c0 c8 ec c1 bd 84 50 e7 bc 59 fa 04 be ca 15 e1 3d
       -0.094689906 -0.028236635 -0.12986125 0.10990484
0000d0 42 5a e4 3d 60 92 91 bd 14 9d e9 3c c4 9d 8e 3d
       0.11150028 -0.07107997 0.028517283 0.06963685
0000e0 8c 31 31 3d ac 4e 95 bc 7a 6a 03 be 94 b5 ca 3d
       0.043260142 -0.01822599 -0.12833586 0.098979145
0000f0 09 69 f4 bd 75 69 ce bc 05 c6 0a 3c a5 c4 d2 bc
       -0.11934096 -0.02519677 0.008470063 -0.025728533
000100 a3 b9 b0 bc e3 a9 a5 bd 11 29 c0 3d 9a 0a d0 3d
       -0.021572893 -0.08089044 0.09382833 0.10158272
000110 7a 42 7c 3e 1d 79 95 3d cc ae 86 3e c4 d1 21 3e
       0.24634734 0.07298491 0.26305234 0.15802675
000120 2e 7b 58 bd a1 b9 98 bc 69 65 8e 3b d9 a2 45 3d
       -0.05285185 -0.018643202 0.004345585 0.048251007
000130 a7 4b 2a 3d 03 f7 d0 3d 5b 27 36 3e be 3b d7 3d
       0.041576054 0.10203364 0.1778845 0.10509442
000140 fd 20 f1 3d 74 61 ae 3d 54 fe fc 3c ee ff 83 3d
       0.1177387 0.085146815 0.030882992 0.06445299
000150 82 bf 94 3d c9 fb 03 3e d7 20 fb bd ac 2c 43 3d
       0.0726309 0.12889017 -0.12262123 0.047650024
000160 87 9c b4 bb 52 50 c5 bc b6 1f 63 bd af 4a ac 3d
       -0.0055118236 -0.024086151 -0.055450164 0.08412682
000170 b6 a3 06 3e 37 13 e3 bd 51 1e a4 3d d9 f3 c7 3d
       0.13148388 -0.11087649 0.08013595 0.09763307
000180 75 f1 dd 3c 30 ba 07 3c d8 2f d3 3d 24 35 84 3b
       0.027092675 0.008284137 0.1031186 0.004034655
000190 24 07 0b bd 3c a4 24 bc 15 d4 32 3d 8b 89 0b 3d
       -0.033942357 -0.010048922 0.04365929 0.034066718
0001a0 00 96 f0 bb 9c f3 2f 3d bf 1d 16 3d c4 c2 e1 bd
       -0.0073421 0.042956933 0.03664946 -0.11023477
0001b0 93 e3 0a 3d 38 87 aa 3d e8 ee 7f 3c f7 77 4b bc
       0.033908438 0.08326572 0.0156209245 -0.012418739
0001c0 4b 82 d5 3d 31 79 f3 bd 60 5c 7e bd b2 ed 7b bd
       0.10425242 -0.1188835 -0.062099814 -0.06150598
0001d0 b3 d6 f0 3d c4 06 12 be f5 be 65 bc af 75 28 be
       0.117597006 -0.14260393 -0.0140225785 -0.16451143
0001e0 27 f6 c5 3c 38 17 55 3d 5d 21 4d bd 36 75 40 3e
       0.024165226 0.052024096 -0.050080646 0.18794712
0001f0 fc 7b 20 3d 3f 67 76 bd 90 3a d8 3c ee cb 62 3d
       0.03918074 -0.060157057 0.026395112 0.055370264
000200 3f 38 82 bc 71 15 04 3e a4 b3 b6 bd 45 a1 4a 3d
       -0.01589596 0.12898804 -0.089209825 0.049470205
000210 76 bb d6 3d a5 06 ae 3d 66 b4 e4 3a 29 12 20 3d
       0.10484974 0.08497361 0.0017448782 0.03907982
000220 55 46 da bd 22 6b da bd 2d 96 f3 bb 2c 99 84 bc
       -0.10657946 -0.10664965 -0.007433674 -0.01618632
000230 de 15 d0 3d ad 1d cb 3d 4a 1e bf 3d 5c ef 7a bd
       0.10160421 0.099177696 0.09331949 -0.061263427
000240 ee 26 de bd 6c 92 01 be 14 f4 57 3d 33 0f 00 be
       -0.10847269 -0.12653512 0.052723005 -0.12505798
000250 d8 83 0a be 37 60 86 bd 75 ac ed bd b2 e1 5a bd
       -0.13526857 -0.0656132 -0.11605159 -0.053437896
000260 78 2c a9 bd 43 fb 8e bd 76 7b 04 3e 1c 14 d2 bc
       -0.08260435 -0.06981518 0.12937722 -0.025644355
000270 ba 30 e7 3d 1e e0 45 3b e0 5a 8f bc fb 31 23 bd
       0.11288591 0.0030193399 -0.017499387 -0.039842587
000280 5a 38 c7 bd 5e eb df bd a1 fa c0 3d de be 2b bd
       -0.09727545 -0.109335646 0.09422804 -0.041930072
000290 9b db 07 be ba c4 ff 3d 5e 77 25 3b 84 7d ba bd
       -0.13267367 0.124886945 0.002524815 -0.091059715
0002a0 f0 11 db bd 67 0b ea bd 9a 60 f4 bd ab bc 27 3e
       -0.10696781 -0.11427956 -0.11932488 0.16380565
0002b0 e4 fa 19 3e 1c fc 8f 3d f1 09 00 be 48 57 38 bd
       0.15037113 0.07030508 -0.12503792 -0.045005113
0002c0 9a 3c fa bd 45 c7 10 bc 5b 0e b3 bd de a9 6d bd
       -0.1221859 -0.008836572 -0.087429725 -0.058023326
0002d0 38 fe ab bc 9d 4d c5 3d 66 f0 cf 3d 86 da b2 3c
       -0.020995244 0.09633944 0.10153274 0.021832716
0002e0 51 80 ac bc cf c6 50 bc f1 85 09 bd 75 d8 fe bd
       -0.02105728 -0.012742712 -0.033575002 -0.1244363
0002f0 18 55 f0 3d 10 5b 6f bd e9 ec a2 3d 29 e0 9a bd
       0.1173498 -0.058436453 0.07955343 -0.075622864
000300 6f 34 82 3a 16 ea 3e 3d eb e3 ff bd eb f6 7f 3d
       0.0009933839 0.04660996 -0.12494644 0.06249134
000310 f8 33 d5 bd 65 10 9b 3c 08 71 c6 bc dd c8 ad 3d
       -0.10410303 0.018928716 -0.02422382 0.08485577
000320 da 82 0b 3e 17 8e 00 3d 8e 76 99 3a 51 71 82 bd
       0.13624135 0.031385507 0.0011708306 -0.0636927
000330 49 c6 56 3d 18 9c 7c bd 45 7e 72 3d 22 97 71 bd
       0.052435193 -0.0616723 0.05920245 -0.058982022
000340 60 0b bd 3d 5d c5 d5 3d a4 e4 aa 3d fb c1 b2 3a
       0.09230685 0.10438035 0.08344391 0.0013638133
000350 83 3e 81 3d 50 f5 fd bd 24 04 e2 3d 6c d1 10 bd
       0.06310751 -0.12400305 0.11035946 -0.03535597
000360 59 14 4b 3d 3c e8 bc bc 47 31 3b bd 2a 05 83 bd
       0.049579952 -0.023059957 -0.04570129 -0.06397469
000370 61 bb b3 3d 2a a5 97 bd 61 f2 c4 bc 8d 81 8c 3d
       0.08775974 -0.074045494 -0.024041357 0.06860647
000380 c8 73 60 3c b7 29 f3 bd f3 8b 35 be 08 82 96 bd
       0.013699479 -0.11873191 -0.17729168 -0.0734902
000390 32 04 62 3e 80 9e 0b be 7c 10 94 3c 1e fa 64 3e
       0.22071913 -0.13634682 0.018074267 0.22361037
0003a0 a1 5c 88 bc 5d a1 7d bd 10 ba e6 bd 2e ee 8a bb
       -0.016645731 -0.061921466 -0.11265957 -0.004239819
0003b0 72 12 b6 bc 5b 2a 04 3d 90 f9 b0 3c 23 b5 bf 3c
       -0.022225592 0.032266956 0.021603376 0.023401802
0003c0 c4 d9 f2 3b cc ed 48 3c dd 84 aa 3c 95 c8 32 3b
       0.0074112136 0.012263726 0.020815307 0.00272802
0003d0 dd fc d4 3c 69 46 68 bd 90 0c e5 3d 89 5b 65 bc
       0.02599948 -0.056707773 0.11184037 -0.013998874
0003e0 aa 4b 91 bc 9c 09 f9 bd 9b 85 c6 bd ed c4 a2 3b
       -0.017736275 -0.12160036 -0.09693452 0.004967323
0003f0 47 40 73 3c 18 1a de bc d1 3d e9 3d 27 81 6a 3c
       0.014846868 -0.027112052 0.11388744 0.014313019

conv2.bias f4 [8]
000000 55 85 d6 bd 25 f8 e6 bc 7a b2 4b 3b f0 5b 2a bd
       -0.1047465 -0.028194496 0.0031081722 -0.041591585
000010 12 a3 e5 3e 8f 03 f8 3e cd cf 03 be 49 55 c7 bd
       0.44850975 0.48440215 -0.12872238 -0.09733064

fc1.weight f4 [40, 968]
000000 c0 d7 32 3c fd 7d fd 3c 2d fc fd bb 6a 9a a1 3c
       0.010915697 0.030943865 -0.007751009 0.01972695
000010 c1 dd eb ba bd d1 49 bc f5 ee a0 3c f2 64 ea bc
       -0.0017995165 -0.012318072 0.019645194 -0.028612588
000020 33 c2 dc 3c 54 83 03 3d 93 c5 0f bc 2e a4 59 3c
       0.02694807 0.032107666 -0.008775133 0.013283772
000030 04 ec 03 3d a0 7f 1e 3c b0 a9 4c 3c 6a 94 3e 3c
       0.032207504 0.009673983 0.0124916285 0.011632064
000040 8d f1 56 bc bc 3e 00 3c 1e 70 8c bc 26 21 e1 3c
       -0.013119114 0.007827457 -0.017143305 0.027481627
000050 59 53 61 bc fc 58 f1 3b 86 29 12 bc ed 6d 84 3c
       -0.013752782 0.007365344 -0.008921033 0.016165698
000060 a0 e9 e2 39 e2 c5 90 3c 5c 81 16 bc b7 8b 9b bc
       0.00043280143 0.017672483 -0.009186115 -0.01898752
000070 e0 2f 4a 3c 15 4c 93 bc d0 c8 d7 bc 08 02 4c 3c
       0.012340516 -0.017980615 -0.026340872 0.012451656
000080 0d 37 9e bc ad 75 44 bc e7 a8 00 bc 39 be ff 3a
       -0.01931336 -0.011990947 -0.007852769 0.0019511647
000090 16 9a 33 bc f0 4e 37 bc 0a 8b 00 bc 1b bc b7 3c
       -0.01096203 -0.011188254 -0.0078456495 0.022428563
0000a0 c7 2d 1c 3c 3b b0 7c bc f3 ef b5 bc ce 38 4f 3a
       0.009532399 -0.015422876 -0.022209143 0.0007904888
0000b0 bd b1 25 3c a9 82 87 ba e3 c1 96 3c 1c 72 dd 3c
       0.010113177 -0.0010338622 0.018403 0.02703195
0000c0 0e 72 1e 3c 7e 8e 35 3c ed ad 98 3c 1b 8a 33 bc
       0.009670747 0.011081336 0.018637622 -0.01095822
0000d0 1b d8 bd 3b a7 53 d6 3c 59 79 7a bc cd f9 d4 3a
       0.005793584 0.026162935 -0.015287721 0.0016248763
0000e0 52 74 55 bc 2d 59 d0 bc 2b 26 88 3c 3e 35 d0 3c
       -0.013028221 -0.025433147 0.016619762 0.025416013
0000f0 b7 a6 8c bc 0e 69 45 3c 49 e9 20 3c f0 57 50 3c
       -0.01716934 0.012048973 0.0098212445 0.012716278
000100 8a b6 91 3c 04 38 f6 3c 62 5f be 3c e9 6e e9 bc
       0.017787237 0.030056007 0.023238841 -0.028495269
000110 b0 6c 5a bc ed cd 87 3c 6e 64 97 bc 71 81 ce 3b
       -0.013331577 0.016577685 -0.018480506 0.0063020517
000120 09 e9 61 bc 35 f7 d1 3b 6a be 80 3c a9 a7 25 3c
       -0.01378847 0.006407643 0.015715797 0.010110774
000130 e1 5e bf 3c 3c ee 8f bb 5f 3e 8c 3c 25 ca 24 3c
       0.023360671 -0.0043924134 0.017119585 0.010057961
000140 09 74 26 bc b5 bd b8 bc 22 52 f3 3c b7 23 1e bc
       -0.010159501 -0.022551397 0.02970225 -0.00965207
000150 63 a6 c6 3c 43 b2 a6 3c 8c 4e a7 ba b7 75 d9 bc
       0.024249261 0.020348674 -0.0012764498 -0.026545389
000160 d3 4b 37 3b d9 24 81 bc f9 bf 07 3c 76 5a 4f bc
       0.0027968779 -0.01576464 0.008285516 -0.012655845
000170 dc 60 cc 3c 11 b5 ed bc fc f3 0e bc c0 8f a7 3b
       0.02494853 -0.029017003 -0.008725163 0.005113572
000180 9e 44 4f 3b c3 60 d8 3c c2 2e 26 bc f6 1b d1 bc
       0.0031626592 0.026413327 -0.010142984 -0.025526028
000190 d2 54 ac 3c e0 32 10 3c 3e 35 ac 3c da a2 9a bc
       0.02103654 0.008801192 0.021021482 -0.018876482
0001a0 be 22 9b bc 22 e2 52 bc 2e 55 19 3b 60 d4 32 3c
       -0.018937465 -0.012871297 0.0023396718 0.010914892
0001b0 65 4e 97 bc f5 3e 46 bb 84 cc ae bb 0b d2 f0 3c
       -0.018469999 -0.0030249928 -0.0053344388 0.029397031
0001c0 58 69 40 bc 53 44 fd 3c ec 78 a0 bc d9 61 5c bc
       -0.011743866 0.030916369 -0.01958891 -0.013451063
0001d0 ed b1 c5 bc 23 d6 c1 3c 0c 21 b5 bc 58 fa 59 3c
       -0.024132693 0.023661679 -0.022110485 0.0133043155
0001e0 b5 fc 40 bc be d2 0b 3d 03 e2 92 3b 1a 83 ea bc
       -0.011779 0.034136526 0.004482509 -0.028626967
0001f0 37 17 c8 3b 1c 66 c8 3b f4 ad e2 bc 0c 1d 17 3c
       0.006106283 0.006115688 -0.027670838 0.009223234
000200 95 0f 05 3d 81 88 12 3c 1e de a4 ba d6 da ef bb
       0.032485563 0.008943678 -0.0012578403 -0.0073197884
000210 6a 0a 25 3c 13 96 6d bc 3d a0 fc 3c 96 f6 e3 3c
       0.010073284 -0.0145011125 0.030838126 0.027827542
000220 de 53 8b 3c 87 3b 05 bc cb 9c d7 bc 8d c7 7f bc
       0.017007764 -0.008131868 -0.026319882 -0.015611541
000230 f3 2f 06 3d 38 f4 ec bc ca 92 fa bc 68 f2 86 bb
       0.03276057 -0.028925046 -0.030587573 -0.0041182525
000240 82 33 15 3c 9e c0 06 bd 49 c6 e5 bc ff 5e b0 3b
       0.009106519 -0.032898538 -0.028048651 0.005382418
000250 8e 58 6c bb d0 b3 ef 3c 80 df 62 3c 40 2b cf bc
       -0.0036063525 0.029260546 0.013847232 -0.025289178
000260 99 f1 e4 bc 17 73 b7 3c ec 6b 15 bc 90 f9 87 bc
       -0.027947234 0.022393746 -0.009119969 -0.016598493
000270 65 c2 f8 3b f1 a1 c4 bb b0 ec 9f 3c fc 9b 6b 3c
       0.007591533 -0.00600075 0.019522041 0.014380451
000280 2c c0 06 bc ca f5 ab bc c0 4c af 3c 78 64 86 bc
       -0.008224528 -0.020991225 0.021398902 -0.01640533
000290 3d 10 16 bb e6 5a 0d bb 0b ad c9 bc 40 97 63 3c
       -0.0022897862 -0.0021569072 -0.024618646 0.013891041
0002a0 b2 e2 cb bc 01 42 ea 3b 3d b7 a2 3b c7 d4 55 3c
       -0.02488837 0.0071489816 0.0049656914 0.013051218
0002b0 60 6f f2 bc 41 e1 9d 3b 98 ca 8b 3c 67 6e a7 bc
       -0.029594123 0.004818112 0.017064378 -0.020438386
0002c0 b6 4e 90 3a 74 9d cd bb 32 43 c1 3c 5b 3e 23 bc
       0.0011009786 -0.0062748734 0.023591612 -0.009963597
0002d0 f9 49 f0 ba 70 24 81 bc 0b 51 11 bc 2d a5 20 3c
       -0.0018332592 -0.015764445 -0.00886942 0.009805006
0002e0 ec 94 f6 bc 27 5b bf 3c d4 43 b6 3c 71 41 35 3c
       -0.030100308 0.023358895 0.02224914 0.011062966
0002f0 ea 96 a2 3c d3 53 57 bc a5 31 93 3b ee 05 2f ba
       0.019847352 -0.013142544 0.004492002 -0.0006676604
000300 78 56 c9 bc 5a ab 52 bc c3 22 38 bc 24 be fc bb
       -0.024577364 -0.012858236 -0.011238757 -0.007713096
000310 d9 b6 f1 bc da 07 bd bc 3a a9 a5 ba 29 d9 b9 bb
       -0.029506134 -0.023075033 -0.0012638934 -0.0056716395
000320 c1 72 00 bd 69 65 b4 3b d3 fa 82 3c 99 e0 d4 3c
       -0.031359438 0.005505253 0.015988743 0.025986003
000330 40 c9 de 3c d5 f5 b1 bc 7a 8a 28 bc 07 f8 80 bc
       0.027195573 -0.021723667 -0.010286922 -0.015743269
000340 63 34 bd 3b 98 49 1c 3c 29 20 c8 3b 8a fd 87 3c
       0.0057740672 0.0095390305 0.0061073494 0.016600389
000350 19 4d 7c 3c c8 bf 92 bc 25 6b b2 3c 39 a4 b5 3c
       0.015399241 -0.017913714 0.021779606 0.022173034
000360 ba b4 87 3b c2 73 eb bc 3e 34 a5 bc 07 2b 12 3c
       0.0041414173 -0.028741721 -0.020166513 0.008921391
000370 8a f1 50 3c 09 0d fe 3c ed 24 80 3c 48 26 2d 3c
       0.0127529 0.031012075 0.015642608 0.010568209
000380 0a a6 08 bb e8 00 af 3c 56 38 54 bc ac 35 3d 3c
       -0.002085092 0.021362737 -0.012952885 0.011548441
000390 68 b9 89 bc 16 45 44 ba a2 50 9c 3c dc 69 9d 3c
       -0.016812041 -0.0007487101 0.019081417 0.019215517
0003a0 9f f6 ae bb 66 5b 4a 39 4d 3e 95 bc c8 5f 4d 3c
       -0.005339458 0.0001929827 -0.018218184 0.012535043
0003b0 21 92 99 3c e8 9d f4 3b fa a8 0a bd e7 6e cb bc
       0.018746438 0.007465113 -0.033852555 -0.024833156
0003c0 e0 69 aa 3c ec 56 95 bb bd 14 a5 3c 40 b6 c7 3c
       0.020802438 -0.004557481 0.02015149 0.024378896
0003d0 40 ad 1d bc 18 42 9e bc 5d 82 f4 bc c5 f5 54 3c
       -0.009623826 -0.019318625 -0.029847318 0.012998049
0003e0 17 7f 8e 3c 86 96 91 bb 90 0e fa bc b5 96 ab bc
       0.017394586 -0.0044429926 -0.030524522 -0.020945886
0003f0 cd c1 f3 ba 38 7f 70 3c 99 56 2c bc 4c 2b ac bc
       -0.0018597186 0.014678769 -0.010518693 -0.02101674

fc1.bias f4 [40]
000000 fe 0f 29 3b 46 35 37 bc 3c d1 21 3d 1d ae b9 bc
       0.0025796886 -0.011182135 0.039506182 -0.022666031
000010 e4 a9 cc 3c 60 06 50 bd ba 20 bb 3d 5e 8c 1e ba
       0.024983354 -0.05078733 0.091371015 -0.0006048138
000020 46 3b b3 bc 63 b1 9b 3d 41 59 d5 3c 21 c6 a1 3d
       -0.02187885 0.07602193 0.026043536 0.07899118
000030 8a 2a 1c 3d 04 42 e2 bc 91 40 a5 bc 1b 2c 86 3c
       0.038126506 -0.02761937 -0.02017239 0.016378453
000040 fc 97 62 3d 4e 36 24 bd 3b 13 5b 3c df ef de bb
       0.055320725 -0.04009085 0.013371284 -0.006803497
000050 38 6c 70 3c a6 b6 ab bc 28 64 40 bc 5f e8 e6 b9
       0.014674239 -0.020961117 -0.011742629 -0.00044042149
000060 dd 69 04 3d 3f 98 11 bd a1 ab c6 bb 06 3c 30 3d
       0.03232752 -0.035545584 -0.00606294 0.043025993
000070 4f 4e db bc 5f d7 60 bc 3f 52 c4 3c 64 ae df bc
       -0.026770739 -0.0137232235 0.023965 -0.027304836
000080 2a 0c 98 bc db f5 bd bc 73 39 80 3d 8e ae 84 3b
       -0.018560488 -0.023188522 0.062609576 0.004049129
000090 05 7f 88 3c e0 18 4f bd 8f c8 05 3c f4 8e e8 bb
       0.01666213 -0.050560832 0.008165493 -0.0070971195

fc2.weight f4 [20, 40]
000000 c6 cc ac 3c d0 87 2d 3c 29 18 39 be 30 2d 1c be
       0.021093737 0.010591462 -0.18075623 -0.15251613
000010 af 67 99 3c 6b 63 15 3e 84 6a f7 bc 7f d7 19 3e
       0.018726198 0.14588706 -0.030202158 0.15023611
000020 ba ce e8 3d 33 71 be bc 67 17 76 bc fe 49 c9 3b
       0.11367555 -0.023247337 -0.015020228 0.0061428538
000030 d5 ca 07 3e 09 5b 88 3d 9a 6f 86 bd 0b 1e c2 3d
       0.13260968 0.066579886 -0.06564255 0.094783865
000040 d1 12 28 be a1 ed 28 bc 7b f2 3c 3d 11 c8 ef bc
       -0.16413428 -0.010310561 0.046129685 -0.029270204
000050 da e0 3a 3c 04 bc e7 bd d5 ea 28 3d 33 08 b5 3d
       0.011406148 -0.11315158 0.04123958 0.088394545
000060 5f ed dc 3d e8 12 03 3e e2 64 d0 3d e6 ec 1c 3e
       0.107874624 0.12800181 0.10175492 0.15324745
000070 4a f0 e4 3d 72 10 06 3d 97 50 03 3d 42 73 20 be
       0.11178644 0.032730527 0.03205928 -0.15668967
000080 0e e3 84 bc 0e 41 cc 3d d7 87 ec bd 73 f5 fb bd
       -0.01622155 0.09973346 -0.11549347 -0.12302675
000090 52 58 af 3d a1 d0 35 3d c9 c3 01 3e 79 c7 d1 3b
       0.08561768 0.044388417 0.12672342 0.006401953
0000a0 02 3e bb 3c 0e 5d 80 3d 3f ef fd 3d 6c 6d 18 be
       0.022856716 0.06267749 0.12399148 -0.14885491
0000b0 e6 95 d1 bc d5 e8 04 3e da 6c 48 be 18 6f 50 be
       -0.025584172 0.12979443 -0.19572774 -0.20354879
0000c0 c5 29 d8 3d 9d 1b 6d 3d 5d 60 f6 3d c9 67 84 3d
       0.10554842 0.057887662 0.120300986 0.06465108
0000d0 ff 5a e8 3d 53 df 75 3d 5f ff 2a bd 95 98 c2 3d
       0.11345481 0.06002743 -0.041747447 0.09501759
0000e0 46 79 b4 bd e8 7f 16 3e 3d 81 cd 3b bf 22 85 bb
       -0.088121936 0.1469723 0.00627151 -0.00406298
0000f0 f9 7e 46 be 92 25 c8 bd be 9f 97 bd da ee 24 bd
       -0.19384374 -0.09772791 -0.07403515 -0.04026685
000100 7e 13 82 3b aa d0 04 3e 2a 94 1d bd 7d 86 f8 bd
       0.003969609 0.12970224 -0.03847138 -0.121350266
000110 34 19 2e 3e 84 4e a9 bc c5 0c 85 3d 34 9d 24 bc
       0.17001802 -0.020667322 0.06496576 -0.010047246
000120 72 b0 e6 bd 52 1f 8a 3e a3 83 10 be c2 a0 ec bd
       -0.11264123 0.2697702 -0.14112715 -0.115540996
000130 b1 0a 21 be e5 57 9b 3d aa ab 3f be 27 1e e7 bd
       -0.15726735 0.07585124 -0.18717828 -0.11285048
000140 c1 a2 72 3d c3 4f 26 bc bc b1 3c 3d 31 40 22 be
       0.059237245 -0.010150853 0.04606794 -0.158448
000150 2e a3 d2 3d 29 eb 57 bd 08 39 7a bd 11 7c 36 be
       0.1028503 -0.0527145 -0.061089545 -0.17820765
000160 2e e6 0b be 99 bc 3d 3e e8 2f 9d 3d 1d 8c 15 3e
       -0.13662025 0.18528976 0.07675153 0.1460423
000170 4c 73 07 be f2 26 83 3c e9 82 59 bc 2c 19 16 3e
       -0.13227576 0.016009782 -0.01327584 0.1465804
000180 8a eb f8 3c d8 3b 84 3d d9 00 1f 3c 82 e9 88 3d
       0.030385751 0.06456727 0.009704792 0.06685163
000190 07 4f 25 be f5 99 b1 3a e7 98 8d 3c b3 dd 08 be
       -0.16143428 0.0013549911 0.017284824 -0.13365822
0001a0 b2 1d 1b 3e a0 2d 1d be 4b ea 5f ba cb e6 39 be
       0.15148047 -0.15349436 -0.0008541687 -0.18154447
0001b0 fe 46 0a 3c 4e 46 3c bc 1c c4 1b 3e 31 32 6f bd
       0.008439777 -0.011491371 0.15211529 -0.058397476
0001c0 0d 51 d1 bc 26 fd 94 3d 07 3d 9d 3d ba a3 ba 3d
       -0.025551343 0.07274847 0.07677656 0.091132596
0001d0 20 93 33 3d cc 5e 3f be b8 6f 27 3e 20 93 ae 3d
       0.04384148 -0.18688506 0.16351211 0.085241556
0001e0 60 a4 fe bb 3d 6d 01 3e ce 88 81 bd 3a e2 85 bc
       -0.00777106 0.12639327 -0.063249215 -0.016343225
0001f0 ab dd 28 be 31 fd 4a bd 92 43 1a bb e9 a0 e4 bc
       -0.1649081 -0.04955787 -0.002353881 -0.02790876
000200 3e c1 9e 3d 53 96 32 ba 99 e0 b0 3d e7 94 0a be
       0.07751702 -0.0006812561 0.086365886 -0.13533364
000210 d3 fa 29 bd 18 45 96 3d bf ca 96 3d 16 a5 2e bd
       -0.04149897 0.07337397 0.073628895 -0.042637907
000220 4f d3 11 be 75 3c 02 be fd 75 82 bd 8e 6b 93 bd
       -0.14240764 -0.12718375 -0.06370161 -0.07198249
000230 82 8a 09 3d e1 fb 0b 3e 87 22 30 3d 71 70 bb 3d
       0.033579357 0.13670303 0.043001678 0.09152306
000240 b4 9f 03 3e 68 18 16 3e 36 2f 0e 3e bc c3 75 bd
       0.1285389 0.14657748 0.13885197 -0.06000112
000250 2b b3 ff bd 14 05 52 3b 58 ce 0a 3e c9 48 82 bc
       -0.124853455 0.0032046484 0.13555276 -0.015903847
000260 c4 24 94 bd 9b 93 af bd 88 af a9 3d 76 0b 00 be
       -0.07233575 -0.085730754 0.08285433 -0.12504372
000270 1e eb 45 3d e4 68 24 be 9d fb bd 3d c9 a6 dc bd
       0.04831993 -0.16055638 0.09276507 -0.10773999
000280 c4 94 eb 3d f2 47 f3 3d f0 cc 65 3c a6 9f ad bd
       0.11502984 0.11878957 0.014025912 -0.08477716
000290 28 8e 0e be 63 cf df bd 65 d3 35 bd b5 a8 17 3e
       -0.13921416 -0.10928228 -0.044391055 0.1481045
0002a0 d9 9d 0f be b5 9d f0 bd fb 8e ad 3d 41 bb 21 3e
       -0.14025058 -0.1174883 0.08474537 0.15794088
0002b0 40 49 15 bc 0b 12 d5 3c 53 32 3d bd b5 03 a3 bd
       -0.009111702 0.02600958 -0.04619057 -0.079596914
0002c0 cc 79 8a 3c d6 cb 35 bb 5a 06 f4 3d 8b 49 bc bd
       0.01690378 -0.0027739904 0.11915274 -0.09193715
0002d0 25 f9 86 bc 93 fc a4 3d d9 5f ed bb 20 5d 03 3c
       -0.016476223 0.08055987 -0.007244092 0.008017808
0002e0 7a 04 0b 3e 98 0d de bd 3a 61 fe bd 0d 82 41 3d
       0.13575926 -0.108424366 -0.12420888 0.047243167
0002f0 49 7e 09 be c7 60 93 bd 62 7d b3 bd fd b7 cb bd
       -0.1342708 -0.07196193 -0.08764149 -0.09947202
000300 ab 58 e4 3d 9b 9f 7b 3d 8d 92 c4 3d 0c c7 52 bd
       0.111497246 0.06143151 0.09598265 -0.051459357
000310 9b d3 0d bc bf 10 bd bd 75 88 5a bd d7 77 9c 3c
       -0.008656408 -0.0923171 -0.05335279 0.019100113
000320 18 81 ed 3c 9d d5 48 bd 37 5e 19 3e 42 dc 8b 3e
       0.02899222 -0.049031842 0.14977346 0.2731648
000330 b7 a3 4f bc 04 eb 3d 3e 58 e7 31 be b0 ea 5f bb
       -0.01267331 0.18546683 -0.17373407 -0.0034166984
000340 00 3b 54 bc 65 43 01 be 05 87 4a 3c 82 04 3a be
       -0.01295352 -0.12623365 0.012361293 -0.18165782
000350 45 e5 e4 bd fa 01 8c bc 8d 0b 2d bd b4 89 d8 bd
       -0.11176542 -0.017090786 -0.042247344 -0.1057314
000360 1c 3e d9 3d 43 c1 52 bd 2c a9 e8 3d c3 f6 17 be
       0.106075495 -0.05145384 0.11360392 -0.14840226
000370 46 20 ec bd f2 87 87 3d 2c f1 d9 3d 01 0d 06 be
       -0.11529593 0.066177264 0.10641703 -0.13090898
000380 e5 03 d3 bd f7 3c 09 3c 89 10 3c 3e a9 7e 5d bd
       -0.10303477 0.008376352 0.18365683 -0.05407587
000390 60 11 65 3e b5 b4 e0 3d f3 25 20 be 00 19 c3 3d
       0.2236991 0.10971967 -0.15639476 0.09526253
0003a0 ea 12 f7 bd 92 70 79 3e 43 c3 66 bd dd ca 08 be
       -0.120641544 0.24359348 -0.05633856 -0.13358636
0003b0 a4 a6 4c bc 64 7c 1c 3e 31 24 ca 3d 1a 12 77 bd
       -0.012490902 0.15281826 0.09870184 -0.060319997
0003c0 d6 bd 8b bd c6 92 07 3e 70 a7 93 3d f4 1c 2c 3e
       -0.06823318 0.13239583 0.072096705 0.1680792
0003d0 2b b1 b9 bd 76 63 d9 3d 72 75 a1 bd 6c 7e 9a 3c
       -0.09066995 0.10614674 -0.07883729 0.01885911
0003e0 2a d7 d0 3d 4b 6b 4a bc b6 6a 7f bd 16 bc 08 3d
       0.10197289 -0.012354682 -0.062357627 0.033382498
0003f0 80 8b d3 bd 0a 81 92 3d 96 71 b5 bd ad 2c 09 3e
       -0.10329342 0.071535185 -0.088595554 0.13395949

fc2.bias f4 [20]
000000 4c 87 10 be 7d 57 0e 3e 71 24 69 3e 22 a5 15 be
       -0.14114112 0.13900562 0.22767808 -0.14613774
000010 29 45 38 bd 63 87 88 3c 6d 11 aa bd 1d c4 98 bd
       -0.04498783 0.01666612 -0.08304105 -0.07459281
000020 91 d2 27 3e f3 05 b9 3d 78 7c 58 bd 72 b1 9a bd
       0.16388918 0.09034338 -0.052853078 -0.07553376
000030 d2 83 e9 bd 85 94 fb 3d 5d 55 8a 3e 17 3d 26 3c
       -0.11402096 0.12284187 0.27018252 0.010146401
000040 aa 8c 81 bc 84 6b 22 3e 51 85 ca 3c b0 4a f6 3c
       -0.015814144 0.15861326 0.024721773 0.03006491

fc3.weight f4 [3, 20]
000000 fb a9 74 3e ef 10 d6 3d 9c c9 66 be 21 d5 0d bd
       0.23892967 0.104524486 -0.22537845 -0.034627084
000010 c8 90 10 3e a3 21 d1 3e 2c ba 7f 3d 7f 5a a9 3e
       0.1411773 0.40845975 0.062433407 0.33076856
000020 87 72 c9 be 2d ea 78 bd d6 e9 5c 3e 35 3b 6e 3b
       -0.3934519 -0.060770202 0.21573576 0.0036351208
000030 ae df 76 3e b8 87 54 3e e0 34 cf be 91 0a 3d 3e
       0.24108765 0.20754898 -0.40470028 0.18461062
000040 3c bb 4e 3e aa 09 29 be ae 3b f4 3d 62 e8 da 3e
       0.20188612 -0.16507593 0.119254455 0.4275542
000050 3c 80 a6 3d 80 da b5 3e ff 66 91 3e 40 e9 5b 3d
       0.081299275 0.35518265 0.28398892 0.05368924
000060 66 be 8b be 37 1f ea bd 71 31 51 be 33 6f 55 3e
       -0.272937 -0.11431735 -0.20429017 0.208432
000070 21 94 82 be 4f 93 fb 3d 8c fb 4e bd 3f 19 63 3d
       -0.25503638 0.12283956 -0.050532863 0.055444
000080 0a 74 2a be 3c b2 16 3e 91 28 3a 3e 16 5b 93 be
       -0.16645828 0.14716429 0.18179537 -0.2878043
000090 fe a1 8d 3e 36 6e 5c 3e fc c6 82 be 97 22 3b be
       0.27662653 0.21526417 -0.25542438 -0.18274914
0000a0 53 71 82 3e 31 97 8f be d7 2d ee bd b8 30 cb 3d
       0.25477085 -0.28045037 -0.11629837 0.09921402
0000b0 4a 3c e0 3d 62 2f f2 be a6 11 33 be 7b dd f2 be
       0.10948999 -0.47301775 -0.17487201 -0.474346
0000c0 89 a0 d5 3e 10 57 52 3b 39 84 a0 3d 0a 13 53 3e
       0.4172404 0.003209535 0.078377195 0.20612732
0000d0 8b 2a 60 3e ba 3e 89 bd 72 34 45 3e 53 c5 ef 3d
       0.21891229 -0.06701417 0.19258288 0.117075585
0000e0 42 61 81 be 63 38 d4 bd 90 9a 15 3e 7e 42 4e bd
       -0.25269514 -0.103623174 0.14609742 -0.05035638

fc3.bias f4 [3]
000000 83 56 c9 be ec bb e4 ba fa af 72 3e
       -0.39323816 -0.0017451025 0.23699942
