Assignments/Assignment_4/trained_net.pth (torch_old, 632342 bytes, 10 tensors)

conv1.weight f4 [6, 3, 3, 3]
00000000: 0460 c6bd b184 1ebd 6b43 983d 5ba2 b2bc
00000010: 8a63 0dbe d82b 0bbe 30f3 8a3d 9bc4 823c
00000020: 6c48 3ebe 80b0 4b3d c982 803d fada 383e
00000030: 19e0 a0bc 95a2 0e3e de2c c5bd 2656 403e
00000040: 5065 20be cc53 82bd 1562 1bbe 0d85 a9bd
00000050: f72e a23d 4404 ee3d 5d8f 083e 3041 213e
00000060: d1d6 0fbd 71d8 e7bd 9665 d43c cc7a 1bbe
00000070: 057b b9bd 8589 39bd 4571 3bbe 1af9 44bd
00000080: 4b4f e03c 2282 6ebd 5006 c0bd a717 413c
00000090: ff57 cabd 0117 b7bd 0d7c f3bd b17e 96bd
000000a0: 1e0c 5e3c 3247 c7bd f1af f8bd eeff 0dbe
000000b0: 974f 35be b30d 043d 7f10 17bd 8f57 383d
000000c0: 9897 8ebd b348 473d ff90 0e3e 4e73 e03c
000000d0: cdd9 1f3e f14c 2c3e 6798 043d 4b00 2e3e
000000e0: f3c9 253d 5201 0ebe ea8b d03c ad4b 223e
000000f0: fa46 243e 8386 0a3e 43da d63d 2d76 f0bc
00000100: 6d2b ac3d 5952 df3d f3fe 023e e371 6e3e
00000110: f75c cb3d 42ac 343e 369b b7bd d5c2 00bd
00000120: 6b37 333c fcf9 673e 70f4 8e3d c882 9bbc
00000130: 3851 923e 991b f33d 87ad 343e 24f5 443e
00000140: d9f2 9e3e 4e92 773d 06e0 353d 7eda 883e
00000150: e02a c63d fdfe 9a3e 6b20 aa3e 103a 203d
00000160: a9d6 79bd 98ee ac3c 07a5 973e 3f32 413c
00000170: d458 aa3e 4718 983e 064a cb3e 831c 093e
00000180: c5f9 a53e 58eb 733e 30d1 fc3d 1945 1dbd
00000190: 7a5e 613e c5ca f13e ace3 d63e 8b45 cb3e
000001a0: d126 013f 16ed b83e d81d 8f3e 80de 683e
000001b0: 51d7 d63d bd47 473e 7914 0fbe eb70 66bd
000001c0: 4838 cbbc 1ff1 06be 2a87 0f3e 4369 c83d
000001d0: 6d3e bc3b 498e babd 5f79 483e a2d6 c6bd
000001e0: 01fb 34be 73ac 37be 3e47 02be 7cb7 0dbe
000001f0: dd35 333e fc40 bc3d 965e 2ebe bc49 313e
00000200: 469c 3bbe 841a 0e3d a098 aebd 8300 033e
00000210: ff61 bfbd e371 0bbc 8e79 ad3d 8336 31bd
00000220: 5f67 48bd 5b61 653d 4568 2d3d b9e2 08be
00000230: 4fe2 1fbe 8bac b8bd 4a21 d73d fdd0 cf3d
00000240: f76b 5e3e d35d 36bd 055e b3bd ade2 f0bd
00000250: 5ceb 75bd adc3 38bc 7777 36be 992c a43d
00000260: e37e 02be 6f20 0d3e 55b9 b33d ef13 ac3d
00000270: 5f28 7cbc 3e9d 0bbe 28de 203e 2e41 ffbd
00000280: de19 183e 1d34 33bd
-0.09686282 -0.038700763 0.07434734 -0.021805933 -0.13807502 -0.13590944 0.067846656 0.01596289
-0.18582314 0.04972887 0.06274945 0.18052283 -0.019638108 0.13929208 -0.09627698 0.18782863
-0.15663648 -0.06363639 -0.15174134 -0.082773305 0.07919114 0.11621907 0.13335939 0.15747523
-0.035116974 -0.1132058 0.025927346 -0.15183562 -0.09056667 -0.045297164 -0.18304928 -0.048089124
0.02738156 -0.058229573 -0.09376204 0.011785424 -0.09880065 -0.089399345 -0.11888895 -0.07348383
0.013552694 -0.09730376 -0.12142933 -0.1386716 -0.17706142 0.032239627 -0.036880966 0.045005377
-0.06962508 0.048653316 0.13922499 0.027398732 0.15610428 0.16826226 0.032371905 0.169923
0.040475797 -0.13867691 0.025457341 0.1584918 0.160427 0.13527875 0.10490849 -0.029353226
0.0840672 0.109043784 0.12792568 0.23285632 0.09929841 0.17643836 -0.08965151 -0.031435806
0.010938506 0.22653955 0.069802165 -0.01898326 0.2857759 0.11870498 0.1764432 0.19234139
0.31044653 0.06044226 0.0444031 0.26729196 0.096761465 0.30272666 0.33227858 0.039117873
-0.06099573 0.021109864 0.29618093 0.011791765 0.33270895 0.29706022 0.39704913 0.13389783
0.32417122 0.23820245 0.12344587 -0.038395975 0.22008696 0.47225013 0.41970575 0.39701495
0.50449854 0.36118382 0.27952456 0.22741127 0.10490287 0.1946096 -0.13972653 -0.05626003
-0.02480711 -0.13177918 0.14016405 0.09785702 0.0057447464 -0.0910917 0.1957755 -0.09708907
-0.17673875 -0.17936878 -0.12722489 -0.13839525 0.17501016 0.09192082 -0.17028269 0.17313284
-0.18321332 0.034693256 -0.08525205 0.12793164 -0.09344863 -0.008511039 0.0847045 -0.043264877
-0.048926707 0.05600105 0.042335767 -0.13367738 -0.15613674 -0.09017285 0.10504396 0.10147283
0.21720873 -0.04452307 -0.08758167 -0.11761985 -0.06003891 -0.0112771215 -0.1781901 0.08016319
-0.12743716 0.13781904 0.08775584 0.084022395 -0.015390485 -0.13634202 0.15709746 -0.12463604
0.14853618 -0.04375087

conv1.bias f4 [6]
00000000: 051f 523e e416 00bd eaca 81be b7ca debd
00000010: 0911 323c f5d4 1f3e
0.20519646 -0.03127183 -0.25350124 -0.108785085 0.010868319 0.1560858

conv2.weight f4 [16, 6, 3, 3]
00000000: 42cd c7bd 734a c63d e5d9 693d b54e 7a3d
00000010: 8ebf fdbd f5d4 94bd 46f8 543b c9d2 a2bd
00000020: f63b 5abd c432 e2bb ef26 8a3b f25c af3d
00000030: d40b 8dbd 9b7f fabd 8293 033e c752 8e3d
00000040: 4ea8 073d acac dcbc 5ce1 8abd be78 813c
00000050: 6cb8 283e 7faf 00be a143 b23d 7457 8ebd
00000060: 04f7 1a3c 41e2 a63d 6c31 a23c 51e9 6e3c
00000070: 2bee e93d ec9a 9b3d 06d3 f73b ebe1 063e
00000080: 40e8 c93d c844 2abe 1981 24be 0eba d23d
00000090: 6fa1 04be bec5 eb3d 93b2 dabd 5b78 05be
000000a0: 3b43 eb3d 3fe7 45bd 4d22 d1bd f95b e43d
000000b0: 2cd5 a6bd 5e28 323d ee98 2dbd 193e 3fbb
000000c0: 12f1 b93d 566d d53d b5c7 9dbd 458b 073d
000000d0: 9963 a13d 4048 1e3d 0119 02be 5598 f83d
000000e0: 135e 1e3d d126 c5bd f948 a03d 12d3 50bc
000000f0: 665d f7bd b2da ba3c ad04 debd 0b03 a9bd
00000100: bd04 9fbd 7b23 0abd 4e3b 163b 07fe 38bc
00000110: 6623 f13c 0473 6a3d 5115 b03d 5fe9 64bd
00000120: 15c4 093e c341 1cbd 4048 0abe c1d4 b7bd
00000130: 8c05 3bbb 93cf fc3b b21a 133e 26d3 c03d
00000140: 289d d43d 22f5 b33c fda2 263d 14f2 46bd
00000150: 7790 03be f475 833d 2094 e1bd b2b3 513d
00000160: 1812 763d 6fc8 373e be31 fdbd 0394 43bd
00000170: 4ceb fb3d 48c3 f4bd a173 fa3c c582 f5bd
00000180: 8ba7 40bd 9dc2 9fbc b2a7 753a f083 a4bd
00000190: 74d5 d93d 0d85 613d 4e10 99bd d5dc b3bd
000001a0: 1b90 c3bc f0f8 8a3d 1fde d4bd ab2b 53bd
000001b0: 31f8 edbd 5205 09be a732 c33d b645 38bd
000001c0: 759b b63d 113d 813d 8863 4f3d dc7f e3bd
000001d0: 884a a5bc 6310 f03d 324b 913c 498b 5fbd
000001e0: 8f41 f43d 7a20 bd3c 3525 bdbd bb6d fd3b
000001f0: 0a29 81bd beba f73c 759e 293d d3fa 1a3e
00000200: c8f6 3e3d 41bd d93c 5a03 d23d edf6 72bd
00000210: c9c6 223e da4d c63d 42a9 83bd b986 7cbd
00000220: fb81 b83d 820d b93d ec26 693c 9245 b43c
00000230: 75fa 143e c97a 153e a861 323e b9f5 c1bd
00000240: 7211 14bd 1b12 54bd 9213 e6bd 46ca fd3d
00000250: 13ae b43d 541f d0bd 7f54 5bbd cf00 ac3d
00000260: eb8b 033e 5d3e 873d a730 19bd 42f3 9ebc
00000270: a92f 17bd 9ce9 d5bd 1de3 c03d 6c47 8c3c
00000280: 509c 10bd 4ec4 673d 326d ad3d 8db1 de3c
00000290: 69ad 823c 9715 04bc f1da b43d 172d 9cbc
000002a0: 5122 dabd 0810 083e d001 cc3c 956a 10bb
000002b0: e769 583d 97f7 d03d 94c3 223d 2451 8abd
000002c0: d230 ff3d 589c 5d3d 544d f63d 6981 b03c
000002d0: 6fec fb3d b6cb 893d 6392 4a3c acf5 d43d
000002e0: cead 4a3d 541b ad3d 64b0 153e 1f43 73bd
000002f0: 0da7 09bd 24ad 303e 28c8 e83d 33a8 963e
00000300: 061c f73d 3132 833d d563 1e3e 82cf 043d
00000310: 34b1 1e3e 4a06 f73d 8a6f adbc 00a8 90bd
00000320: 0cf4 973d 5a69 28bd ed0e 733c 67e2 eb3d
00000330: 90f1 213d 2e79 9dbc 9f3b ea3d 74a6 e03d
00000340: 0b46 e5bc d624 913c 0e03 ebbd f680 023e
00000350: 9f25 eabd d728 b93d b17b 96bd f207 173e
00000360: 8807 43bd 6d17 cabd 2650 99bd 6652 0fbe
00000370: 284e 97bd b65d afbd 5d77 11bd b64b d6bc
00000380: 589f 943d aec8 65bd 3c53 44bd a722 e93c
00000390: 6e50 093d a8eb c5bd 0092 f7bd c28c f23d
000003a0: 8c2a a9bc 1676 463d 90d2 05be e4e4 52bd
000003b0: 380d bbbd 6f1f 523d 3696 c13d c506 003e
000003c0: fcc9 543d e37b 20bd 77bd df3d 1cd8 863d
000003d0: 7587 61bd 9728 7abd fa75 bdbc dd41 4f3e
000003e0: f86e 643e 6baf 39bb b73c 7a3d 7fb9 1e3e
000003f0: 4368 48bd 9c79 dcbc 3fd0 b63d b5a1 ff3b
-0.09755947 0.09682169 0.057092566 0.061110217 -0.12390052 -0.07267181 0.0032496615 -0.0795036
-0.05327984 -0.0069030244 0.004216067 0.0856265 -0.06887022 -0.1223137 0.12849239 0.06949382
0.033119492 -0.026937805 -0.06781265 0.015804645 0.16476601 -0.12566946 0.087043054 -0.06950274
0.009458307 0.08148623 0.019798957 0.014581994 0.1142238 0.075979084 0.0075629978 0.13172118
0.09858751 -0.166278 -0.16064872 0.10289393 -0.12952207 0.11512326 -0.106785916 -0.13034193
0.114874326 -0.048316237 -0.102116205 0.11150355 -0.08146128 0.04349553 -0.042382173 -0.00291813
0.09079184 0.10421245 -0.07704107 0.033091802 0.07880325 0.03864312 -0.1270485 0.1213843
0.038663935 -0.09626544 0.078264184 -0.012745636 -0.12078361 0.02280936 -0.108407356 -0.082525335
-0.07764576 -0.033725243 0.0022923532 -0.011291034 0.029435825 0.057238594 0.08597816 -0.055886623
0.13453706 -0.038148653 -0.13504124 -0.089761265 -0.0028537242 0.0077151745 0.14365652 0.09415273
0.10381538 0.021967474 0.04068278 -0.048570707 -0.12848078 0.06418982 -0.11014581 0.05119676
0.06007585 0.17947553 -0.12363003 -0.047748577 0.12300739 -0.119513094 0.030572714 -0.11987833
-0.04703478 -0.019501979 0.0009370997 -0.080329776 0.10636416 0.055058528 -0.07473813 -0.08782355
-0.023872426 0.06785762 -0.10393929 -0.051555317 -0.116196044 -0.13380936 0.095311455 -0.044988357
0.0891637 0.063104756 0.05063203 -0.111083716 -0.02017714 0.117218755 0.017736051 -0.054576192
0.11926567 0.023086775 -0.09235612 0.007734028 -0.06306656 0.030240413 0.041410882 0.15134744
0.046622068 0.026579501 0.102545455 -0.059317518 0.15896143 0.09682818 -0.06428768 -0.06165192
0.09009167 0.090357795 0.014230471 0.02200583 0.14548667 0.1459762 0.17420065 -0.09470696
-0.03614945 -0.05177508 -0.112342015 0.12392096 0.088222645 -0.10162225 -0.05354738 0.08398592
0.12846343 0.06603692 -0.037399914 -0.019403104 -0.036910687 -0.10444948 0.094183184 0.0171239
-0.03530532 0.056583695 0.08468093 0.027184272 0.015951829 -0.008061788 0.08830822 -0.01906447
-0.106510766 0.13287365 0.024903208 -0.0022036184 0.05283537 0.10203474 0.0397373 -0.067537576
0.124604836 0.05410418 0.12026468 0.021546083 0.123009555 0.06728308 0.012364003 0.10398421
0.04948216 0.08452478 0.14618069 -0.059390184 -0.033606578 0.17253548 0.11366302 0.294252
0.12065892 0.064060576 0.1546777 0.032424457 0.15497285 0.120617464 -0.02117135 -0.070632935
0.07419595 -0.041116096 0.014835102 0.11517792 0.039537013 -0.019222822 0.11437153 0.109692484
-0.0279875 0.01771776 -0.11475192 0.12744507 -0.11432957 0.09040993 -0.07347811 0.14749125
-0.047614604 -0.09867749 -0.0748599 -0.13996276 -0.07387954 -0.08562796 -0.035514224 -0.026159149
0.07256955 -0.056099586 -0.04793094 0.028458906 0.03352397 -0.096640885 -0.12088394 0.11843254
-0.02065017 0.04845246 -0.13068604 -0.05148782 -0.09133381 0.05129951 0.094524786 0.12502582
0.05195044 -0.039180648 0.109248094 0.06584188 -0.055060823 -0.061073866 -0.023127545 0.20239969
0.22307956 -0.0028333317 0.06109306 0.15500449 -0.048927557 -0.026913457 0.089264385 0.0078012594

conv2.bias f4 [16]
00000000: ee6f 10bd 6d91 573d 10e8 e6bd 11e5 173b
00000010: fdde 493d d326 a7bd 48c4 223e 6708 693c
00000020: 6796 09be 9985 033d 6c6f 04be 007a 31be
00000030: 134f e43c bb45 f03d 642d eb3d 0931 543d
-0.035262994 0.052628923 -0.11274731 0.0023177306 0.049284924 -0.08161702 0.15895188 0.014223195
-0.1343628 0.03210983 -0.12933129 -0.17331696 0.027869737 0.1173205 0.11483267 0.051804576

fc1.weight f4 [80, 1936]
00000000: c00d dc3c bf67 cf3c d8f4 62bb 7b1d 10ba
00000010: 7dd0 a8bc dfaa bebb 163a a23c 881b ad3a
00000020: 390e 453b 8755 c5bb 442d 44bc 9472 9e3c
00000030: 17ac 51bc 2ac9 573c 84d2 45bc 93f0 453c
00000040: b00e 883b 83a3 fcbb 0293 883c cfb0 99bc
00000050: 4590 883c 82da 72bc 14eb 7dbc d608 92bc
00000060: 5915 37bc 2658 043b ebd0 433c 2807 0f3b
00000070: ad62 bdbb f215 28bc 4da8 603b 13f7 bf3c
00000080: f269 c5bb b48f 15bc 8214 e5bb 382d 74bc
00000090: 70b5 473c 8b39 1fbc 16a1 273c b76f edba
000000a0: 6c36 7f3c aed4 77bc 02a6 9fbc f064 973b
000000b0: 4bb1 563c 9559 8bbc 9eca 5bbc 577c 923c
000000c0: 7890 a83c b9ce 513c 56a3 5d3c fc21 033c
000000d0: 7c2c 903c 52fb 853a 456f 8abc af06 1fbc
000000e0: a7f4 433c 3c7c d9ba 96ff a03c 8616 c23c
000000f0: 4764 843c 468e 87bc 84ee 00bc 2f90 b13c
00000100: 3b20 0f3c 0a72 693c 4a7e bf3b 2186 adbc
00000110: 74c6 e93a 9d8a 51b8 bbe9 2b3b 62d4 9c3c
00000120: fb15 72bc d92c b03c 0285 4b3c 5f2f 1538
00000130: 7251 993c 59c9 183c 2e3c 74bb e82a 90bb
00000140: f5b3 883c e352 87b8 6185 c038 96c1 adbb
00000150: 6cec 493c ec89 34ba 4c35 d1bb f45c 50bc
00000160: 658b 883c ad2f dd3c 3525 a73c 53eb 95bb
00000170: 4c82 8e3c 1ce0 5f3c 377b 09bc 4692 8fbc
00000180: e389 b5bc d67b 12bc e226 6abc 2f9b 66bc
00000190: a8e2 8dbb ad0a 55bc 6885 493c 7971 a63c
000001a0: 6f86 b33c db1b 863c 5a96 1c3c b997 aebc
000001b0: f41e a3ba 9c6b 1c3c 36b6 653b 8b86 2b3c
000001c0: cda6 b53c ce80 753b 2fcd 5abb 6137 a93c
000001d0: 66c2 9abc d80e 393b d002 c13b 45c7 043c
000001e0: 99c0 c4bc 20b7 74bc 23b5 ae3c 29cf 523a
000001f0: 3c97 223c 30ac 143c a102 463c ea19 ab3c
00000200: 46c3 353c 00d5 97bb fb9d c2bb bb59 b2bc
00000210: f22a 023c 62e3 b23c fbaf b73c 38c2 38bc
00000220: 7643 033c 2f49 26bc b735 afbc 2157 aa3c
00000230: 9d14 f53b 90ac 91bc d0d7 003c 6e6e ae3c
00000240: 2a7f baba f3e6 b83b 4e46 6c3c 6319 353c
00000250: 4a33 843b 5b62 b53b b7c7 2bbc b8ad 093c
00000260: 29b9 9abc 3eea e53b c060 88bc d5a0 deba
00000270: d62b 553c 01f6 32bc 8991 d9bb 8553 0ebc
00000280: 8a2a 4cbc 9a6c e6bb 8c43 3cbc 788d abbc
00000290: ab6e 4a3b 6a5e 18bc a0d8 433b 9704 5e3b
000002a0: 28d6 a33a 9b99 96ba f0ed ae3b 5020 413c
000002b0: e53e a638 af0a 1b3c 0fef d13b efe0 6abb
000002c0: fee6 dd39 5c43 873c ea88 2ebb 84a5 883a
000002d0: ce9d d4bb 61c3 853c 2c5d d93b ad35 37bb
000002e0: 1814 a2bc 5613 adbc 7483 9c3b ad0b ce3c
000002f0: b8e8 eebb c275 873c 249a 84bb 0d2f f93b
00000300: af7d f4b9 6713 8f39 29d8 383c ceb5 633c
00000310: c255 883b a930 cb3c 3435 62bc 57e9 093b
00000320: 0d17 9cbc 5209 9cbc b4d7 d1bc 5d89 95bb
00000330: 1bd4 6d3b e484 30bb 8e0c 17bc ffba 2ebc
00000340: 203a 1c3b 9c94 47bc 27c8 11bc 0c17 9b3c
00000350: c407 363c 52f4 a83b c192 92bb bf0b b2bc
00000360: 18a4 31bc 5804 e5bb 6339 4cbc 9fae 2dbc
00000370: 8d89 6fbb e35d 8c3c 2591 593a 6fe7 833c
00000380: 4b96 4dbc 7614 683c 74aa aabc c0cc cabb
00000390: 385a f5bb dd88 79bc cf6e a7bc 937f 5cbc
000003a0: 6f94 07bc e7fb 4dbc 142b d3bc 4db7 053b
000003b0: 6d09 513c ec59 1e3c 2efb ac3c b2f3 8f3b
000003c0: 4c00 d63c ac3c f73a 58d3 26bc 3c55 653b
000003d0: 91f8 1dbc d36a 21bc 04ca 123a b488 56bc
000003e0: 5189 3f3c af17 42bc 0470 e1ba b65d 15bc
000003f0: 2653 14bd 1e53 f83a 0d74 afbc bdd1 103c
0.026862025 0.025318025 -0.0034630802 -0.0005497557 -0.020607227 -0.0058187093 0.019803088 0.0013207057
0.0030068292 -0.0060221585 -0.011973683 0.019341744 -0.012797377 0.01317052 -0.012074117 0.012081283
0.0041521415 -0.007709922 0.016671661 -0.018761067 0.016670356 -0.014822604 -0.0154979415 -0.017826479
-0.011174523 0.0020194142 0.011951665 0.0021824334 -0.0057795853 -0.010259138 0.0034280003 0.023433244
-0.0060245926 -0.0091285 -0.00699097 -0.014903359 0.012189254 -0.009718309 0.010231277 -0.0018114959
0.01557694 -0.01512639 -0.019488338 0.004620187 0.013103793 -0.01701049 -0.013415007 0.017881555
0.0205767 0.012805634 0.013527712 0.008003708 0.017599337 0.0010221994 -0.01689876 -0.009706183
0.011960185 -0.0016592811 0.019653123 0.02369238 0.016161097 -0.016547333 -0.007869367 0.021675197
0.008735712 0.01424838 0.0058439123 -0.021182122 0.0017835633 -4.9958577e-05 0.0026231844 0.01914424
-0.014775748 0.02150576 0.012421848 3.5568486e-05 0.018715594 0.009325349 -0.0037267315 -0.004399646
0.016687373 -6.4527405e-05 9.180117e-05 -0.0053026183 0.012324434 -0.0006887007 -0.0063845273 -0.012717474
0.016668031 0.027000273 0.020403484 -0.004575172 0.017396115 0.013664272 -0.008391193 -0.017525803
-0.022160476 -0.008940658 -0.014291497 -0.014075085 -0.004329998 -0.013003034 0.012299873 0.02031778
0.021914689 0.016370704 0.009557331 -0.021312581 -0.0012445138 0.00954714 0.0035051233 0.010469089
0.022174263 0.0037460807 -0.003338646 0.02065629 -0.018891525 0.0028237607 0.005890228 0.00810415
-0.024017619 -0.0149362385 0.021326607 0.00080417335 0.009923752 0.009074256 0.012085588 0.02088638
0.01109392 -0.004633546 -0.005939243 -0.021771302 0.007944809 0.02183694 0.022422781 -0.011276774
0.008011689 -0.010149284 -0.021387918 0.0207935 0.007479264 -0.01778248 0.007863954 0.021292891
-0.0014228572 0.0056427657 0.014421059 0.011053416 0.0040344344 0.0055354065 -0.010484627 0.008403234
-0.01888712 0.0070164492 -0.016647696 -0.0016985188 0.01301094 -0.01092291 -0.0066396636 -0.008686905
-0.012461314 -0.0070319893 -0.011490714 -0.020941481 0.0030888717 -0.009299854 0.0029883757 0.0033877247
0.0012499737 -0.001148987 0.005338423 0.011787489 7.927212e-05 0.009462996 0.006406672 -0.0035839637
0.00042324507 0.016511612 -0.00266319 0.0010425304 -0.0064885383 0.016328515 0.0066334214 -0.0027955577
-0.019784972 -0.021127384 0.0047764126 0.025152052 -0.007290926 0.016535643 -0.0040466953 0.007604486
-0.00046632948 0.0002728954 0.011282005 0.013898326 0.0041606138 0.024803476 -0.01380663 0.0021043622
-0.01905396 -0.019047413 -0.02561555 -0.004563494 0.0036289755 -0.0026934678 -0.009219302 -0.0106647005
0.0023838356 -0.012181427 -0.008897818 0.018931888 0.01111025 0.0051560784 -0.004473061 -0.021734117
-0.010842346 -0.006989043 -0.012464854 -0.010600715 -0.0036550493 0.017134612 0.0008299521 0.016101567
-0.01254804 0.0141650345 -0.020833232 -0.006188959 -0.0074875616 -0.015230385 -0.02043858 -0.01345815
-0.008275135 -0.012572265 -0.025777377 0.0020403445 0.012758595 0.009664994 0.021115866 0.0043930644
0.026123188 0.0018862686 -0.010182224 0.003499343 -0.009641782 -0.009852129 0.00055995607 -0.013094116
0.011690454 -0.011846467 -0.0017199521 -0.009116581 -0.03621211 0.0018945669 -0.021417642 0.008839068

fc1.bias f4 [80]
00000000: 8445 d23b 5a50 ab3c 8f21 ff3c 1069 8a3c
00000010: 7a92 ab3b f631 b13b 8ff1 bdbb fe41 c93c
00000020: 0d67 553b 98bd 2a3c aaf2 123c 32bf b13b
00000030: 6661 40bc 0406 8c3c c85b a53c f6a7 f1bb
00000040: 1abe ecba 8b67 c43a 8226 88bc 30da 233d
00000050: af78 5c3c 8899 413c d7fb f3bb 0b4c 453c
00000060: 550b b8bc 95ef 0cbc 74f6 093c 74c8 e3bb
00000070: b114 043c 14f8 49bc 60b4 e5ba 8df1 ecba
00000080: c59d 07bc 703b 24bc 377d a13b b46c 443c
00000090: d197 e0bc 28ba 2a3c ebf7 cebc c2a0 89bb
000000a0: 3fd8 93bc d4fe 1ebc 5c80 6d3c 9ae9 8abc
000000b0: cadb bd3c 620d 1fbc 2fc7 9f3b 354f d1bb
000000c0: 6285 853c c94b 6a3c cb1c 393b 57f8 9abc
000000d0: 0a54 da3c 1481 d4bc b471 b03c b573 96bc
000000e0: bac9 1cbc abfb b4bc fbec 9ebc 8f98 ed3c
000000f0: efa4 b93c 1590 51bc 2387 a73b 29b0 d2b9
00000100: ec99 96bc 8074 9f3b 7982 98bc 19ae 10bc
00000110: a8ad 71b9 1213 82bb 1de6 b53c ca6c a73b
00000120: 8a72 6ebc 5406 843b a4c9 edbc 0f4b 66bc
00000130: 1ef2 a7bc 9d7c aebc 46da 54bc 1dc8 65bc
0.0064169783 0.020912338 0.031143932 0.0168958 0.005235967 0.005407567 -0.0057966183 0.0245676
0.0032562644 0.010421179 0.008968988 0.0054244036 -0.011741972 0.017092712 0.020185366 -0.007374759
-0.0018062026 0.0014984471 -0.016619924 0.040003 0.013456508 0.01181639 -0.007445793 0.012042056
-0.022466341 -0.008602043 0.008420575 -0.006951386 0.008061574 -0.012327213 -0.0017525069 -0.0018077359
-0.008277361 -0.010023937 0.004928257 0.0119888075 -0.027416142 0.01042036 -0.0252647 -0.004200072
-0.01804745 -0.00970431 0.014495935 -0.016957093 0.023176093 -0.009707781 0.0048760395 -0.006387616
0.016298953 0.014300295 0.0028245922 -0.018917246 0.026651401 -0.025940455 0.021538593 -0.01836572
-0.00956958 -0.02209266 -0.01940011 0.02900341 0.022661654 -0.0127906995 0.005112545 -0.0004018557
-0.018383943 0.004866183 -0.018616902 -0.008830571 -0.00023048243 -0.0039695585 0.022204453 0.005109404
-0.014553675 0.0040290747 -0.029026814 -0.014055981 -0.020501193 -0.021299655 -0.012991494 -0.0140247615

fc2.weight f4 [20, 80]
00000000: 39a9 ffbd 26b8 c2bb ddf8 c3bd 9363 be3d
00000010: 3280 44bd c33b f03d c215 f13d 87ab ef3c
00000020: 26d5 14bd c0bc cb3c b148 d33d b46a ba3d
00000030: c40a 353d 59fa d0bc d850 e03d d939 153d
00000040: 7436 55bd 54ae b03d 1b38 a93d 7086 df3c
00000050: 0e3e ffbb 88f3 bf3c bd98 b03d 2e55 063d
00000060: 4840 cd3c 3a76 bbbd aaab a0bd deca 81bd
00000070: 3762 99bd 9e3c 033d a072 32bb f733 8a3d
00000080: bfa8 24be 8224 d1bd 2f7f f0bb bcf2 d7bc
00000090: a195 de3d 9fa8 b4bd 9528 82bc 7caa d7bd
000000a0: e599 39bd 12fc 833d 44bb 9bbd e401 a93b
000000b0: 0d50 0fbe 3eba d43d ed99 10bc 03c8 f23d
000000c0: c94e a43d bea6 793d 44e9 d1ba 49d5 a23d
000000d0: bc4c 08be d6d3 ff3d f652 ce3d bfa5 33bc
000000e0: fcfc 013e b52b 1cbd c7bc 8ebd 15c2 07be
000000f0: 5d5f 9ebd 8f8a a8bd 96c6 44bd d4e6 853c
00000100: 7468 dabd be99 16bd c2dd a83d 0711 b0bc
00000110: 6039 423c bab0 c0bd 8c09 aebc e227 2a3c
00000120: 4ea9 213d ebc7 973d dbc8 123d 7dbb 953d
00000130: 4408 ae3d cea2 f5bc 9ce4 32bd 5493 ca3d
00000140: e79d a0bd 5802 98bd c049 3a3d 3435 ddbc
00000150: 439c c33d 3403 50bc bf3e 2abd 5434 c2bd
00000160: 676a c73d 0060 2ebb 626f debc b783 263d
00000170: 7809 3bbc 9b53 933d 48c6 af3c 9fdf 65bd
00000180: 1002 b73d aad5 23bc f833 bb3b e7af 8a3d
00000190: 4b8a 61bd a789 dbbd 5e8a 8b3d 4cf2 ca3d
000001a0: 1eb9 b4bd 4d19 d7bd b6b8 33bd b6c4 51bd
000001b0: 97f0 843c b25e dcbd 406f 703d 622f 7f3d
000001c0: 3a12 06bd 6f47 cfbc 847d c0bd 024f e13c
000001d0: 1485 3f3d ec76 d0ba 3e65 6a3c cd8e 34bd
000001e0: a785 793c 076f f6bd 5023 ebbc fb85 d73d
000001f0: 80a3 c8bd 54f9 68bd 74b7 3ebd b267 a1bd
00000200: 32e9 a03d f1d8 c23d 2837 3c3d 3a41 9f3c
00000210: d1af ddbd a3e4 6abd 8c4c 41bd a33c bb3d
00000220: 47c5 de3c 2629 7ebc 3308 ae3d a752 be3c
00000230: 8079 a53b 3a0b 89bd 8003 f83b 4d77 42bd
00000240: 2808 9dbd eaa2 c03d 3857 c8bc 6941 413d
00000250: 7ff2 513d 2900 89bd c4b2 743d fdd5 8dbc
00000260: 2c26 643b 4afc a63d 78c2 bebd b278 6e3c
00000270: e60a ce3d db2f b53d f35f fe3c 41be 1d3c
00000280: 072c 26bd 6380 d43d 152e d93b 8828 f4bd
00000290: 63ef b03d f9ba e53c 3a38 e13d 54f9 d5bd
000002a0: 6cc6 a93c f4ec 043d f941 013c ca8b 123e
000002b0: a8d1 19bd 8a46 0dbc 6441 6f3d 4a81 e23d
000002c0: 42ef a4bd e69c fd3d d445 303c 9e56 bbbc
000002d0: 0e9e d53d 88b3 48bd f370 543d e35a 8ebd
000002e0: 36b6 81bd 5cd3 943d d158 d0bd 1466 ab3d
000002f0: a8ed f03d 6ac0 93bc e450 c4bc b49d 2d3c
00000300: 2159 8a3d 57b3 01be 3391 3dbc b755 5c3c
00000310: 1285 8abd 4629 23be f50c 083e ace2 59bd
00000320: e0ce 84bc 57c1 953b 62cb a93d 8127 8bbd
00000330: d943 babd 6622 0d3e d4c0 bc3d fee4 c73d
00000340: f59a 71bd 0c9e 823c 4397 f13d 274e 8dbd
00000350: 3558 dc39 b614 ac3c 6cf6 a0bc e72c bc3c
00000360: a4fa cfbd d7b4 343d 2158 503d 74dc 12be
00000370: 479a 75bd e8dd 5a3d 8537 babb 64a6 4e3d
00000380: c6b9 01bd eef0 683d 4c85 9839 7622 14bc
00000390: a507 013d fc80 2d3c 80eb b63c b661 873d
000003a0: c5b7 06be 5cf5 a83d 182e 7b3d abd4 313d
000003b0: e3fc fb3d 3dd1 fa3c d17c d5bd 2f97 a33d
000003c0: ea5b 813d 16c6 ee3b 8ceb c03b fe94 e2bd
000003d0: 8b7e 683d 833e c43d 3133 cb3d 1ab4 133d
000003e0: 09c4 7b3d 9004 cebb e68a 963a a29d 173e
000003f0: e8bb d3bc ea17 2dbd 189a 743d ea0e 6d3d
-0.124834485 -0.0059423624 -0.09568951 0.09296336 -0.04797382 0.11730149 0.11771728 0.029256595
-0.036336087 0.024870276 0.10316599 0.09102383 0.04419972 -0.02551 0.1095292 0.03643212
-0.052053884 0.086270005 0.082626544 0.027285784 -0.00778938 0.023431554 0.086228825 0.032796077
0.025055066 -0.09153409 -0.07845242 -0.06337522 -0.07489436 0.03204023 -0.0027228966 0.06748193
-0.16079997 -0.102120414 -0.00733938 -0.026360862 0.10868383 -0.088212244 -0.015888492 -0.10530564
-0.04531278 0.06444563 -0.076040775 0.005157696 -0.1399538 0.103870854 -0.008825761 0.118545555
0.080228396 0.060950033 -0.0016014953 0.07950837 -0.13310522 0.124915764 0.10074417 -0.01096481
0.12694162 -0.03812762 -0.069696 -0.1325763 -0.07733033 -0.08229553 -0.04804095 0.016345419
-0.10664454 -0.036767714 0.08245422 -0.021492494 0.0118545 -0.09408708 -0.021244787 0.010385485
0.039468102 0.07411178 0.035836082 0.07311151 0.0849767 -0.029984858 -0.04367505 0.09891382
-0.078426175 -0.07422322 0.04548049 -0.027002908 0.09551289 -0.012696076 -0.041563746 -0.09482637
0.097370915 -0.0026607513 -0.02715272 0.040652957 -0.011415832 0.07193681 0.021456853 -0.056121465
0.0893594 -0.009999672 0.0057129823 0.06771832 -0.055063527 -0.107196145 0.06813501 0.09909496
-0.08824371 -0.105028726 -0.043877326 -0.05121299 0.016228003 -0.10760249 0.058699846 0.062301047
-0.032732226 -0.025302617 -0.0939894 0.027503494 0.046757773 -0.0015904582 0.014306365 -0.044081498
0.015229619 -0.120328955 -0.028703362 0.105236016 -0.0979681 -0.056878403 -0.046561673 -0.078811064
0.078569785 0.095140345 0.04595104 0.019440282 -0.1082455 -0.05734695 -0.04719214 0.09142425
0.027193679 -0.01551274 0.084976576 0.023232771 0.0050498843 -0.066915944 0.0075687766 -0.047477055
-0.07667571 0.094060734 -0.024455652 0.04718152 0.051256653 -0.06689484 0.059740797 -0.017313952
0.0034812791 0.08153589 -0.09314436 0.014555143 0.100606725 0.08847018 0.031051612 0.00962788
-0.04056933 0.1037605 0.006627808 -0.11921793 0.086394094 0.028043257 0.109970525 -0.10447946
0.020724498 0.03245254 0.007889264 0.14311138 -0.03755346 -0.008622775 0.05841197 0.11059816
-0.08053447 0.123834416 0.010758836 -0.02286845 0.10430537 -0.04899934 0.05186553 -0.06950929
-0.06333582 0.07266876 -0.101731904 0.08369079 0.11764079 -0.018036086 -0.023964353 0.010596681
0.06755281 -0.12666069 -0.011570263 0.01344817 -0.067636624 -0.15933713 0.13286193 -0.053194687
-0.016211927 0.004570167 0.08290745 -0.06794644 -0.09094972 0.13782653 0.092164665 0.09760474
-0.05898567 0.015944503 0.11796429 -0.06899672 0.0004202739 0.02100597 -0.019648753 0.02297063
-0.10155228 0.044117775 0.050865296 -0.14341909 -0.059961583 0.053434283 -0.005682888 0.05045165
-0.031671308 0.056870393 0.00029091013 -0.009041419 0.03150143 0.010589834 0.022329092 0.06610434
-0.1315604 0.082499236 0.061323255 0.043415707 0.12304094 0.03061735 -0.104241975 0.0798782
0.06316359 0.0072867973 0.0058874544 -0.11063574 0.056761306 0.09582236 0.09921873 0.03606043
0.06146625 -0.006287165 0.0011485487 0.14806226 -0.025846437 -0.042259134 0.059717268 0.05787555

fc2.bias f4 [20]
00000000: 0a64 603d 2c24 9fbc c9bb 4d3c 711a fc3c
00000010: 8b73 5d3b 006e 043c 6676 80bd eccd e73d
00000020: 7534 c6bd b05f f83c ea1a 083e ae41 3cbd
00000030: 7abf dcbb d4b9 9a3d 0faf 7c3d c7c3 aabd
00000040: dd55 9e3d 367d 0cbd fc0a b0bd d0a8 693d
0.054782905 -0.019426428 0.0125569785 0.030774327 0.0033790793 0.008082867 -0.06272583 0.11318573
-0.09677974 0.030319065 0.13291517 -0.045961075 -0.006736693 0.07554975 0.061690386 -0.08338123
0.07731221 -0.034299098 -0.08595845 0.057045758

fc3.weight f4 [3, 20]
00000000: fd36 92be bf4c 643e 267a 5dbe 5156 553c
00000010: 380e a1be 9607 c2be cf0b 283e e5be 9abe
00000020: 0080 59bc a5fc 99be 756d e83e 9d00 3f3e
00000030: d335 3dbe 9aa1 bf3e 49bb c93d 08f4 ad3c
00000040: 9d1d 3a3e 7054 9d3c bbd0 d43d 6f9a 8fbd
00000050: 79fd 363e 0447 3f3d fba6 d8bd dd7a a8be
00000060: 91a3 4c3e 4af4 923e 33cb 03be c7bf b63e
00000070: ced4 493e 7521 1bbe 0451 b9be 515f 96be
00000080: 6e10 97be 10de 883e f06e 52be f2e2 433e
00000090: 3d6f ad3d f379 19be 38f6 56bd 058e e63d
000000a0: ef5c 873e 24fd cbbd 16b0 b53e dc3a dd3e
000000b0: 0d73 1c3d 45a7 063e fdd5 953d 152a 6fbe
000000c0: a088 2b3e cbd2 203e 1adb 61be cde8 0bbe
000000d0: 9ef9 e93e 1775 c6be ef55 dd3b 6acf 37be
000000e0: df2d dbbe 3841 4b3e c069 58be 1e4c 52be
-0.28557578 0.22294901 -0.21628627 0.013021068 -0.3145616 -0.37896413 0.16410755 -0.30223766
-0.0132751465 -0.30075565 0.4539601 0.18652578 -0.18477564 0.3742798 0.09850175 0.021234527
0.18175359 0.019205302 0.10391375 -0.07011878 0.1787013 0.046698585 -0.10578724 -0.32906237
0.1998427 0.28702003 -0.12870483 0.3569319 0.19710085 -0.15149482 -0.36194623 -0.29369596
-0.29504722 0.2673192 -0.20550132 0.19129542 0.08468483 -0.14987926 -0.052480906 0.11257557
0.2643809 -0.09960392 0.35485905 0.4320897 0.03819566 0.13149746 0.07316206 -0.23355897
0.16751337 0.15705411 -0.22056237 -0.13663025 0.45698255 -0.38761207 0.006754629 -0.17950216
-0.42808434 0.19849098 -0.2113409 -0.20536849

fc3.bias f4 [3]
00000000: 1dec 2e3c 0bb2 e13d 2979 163d
0.010676411 0.11020287 0.03673664
