Assignments/Assignment_4/trained_net_2.pth (torch_old, 632342 bytes, 10 tensors)

conv1.weight f4 [6, 3, 3, 3]
000000 21 62 df bd 13 a1 47 bd 78 e3 79 3d 92 c1 26 bd
       -0.109073885 -0.048737597 0.061007947 -0.040711947
000010 ba 9f 15 be 79 70 0a be 4c ec 4d 3d b0 20 04 3c
       -0.14611712 -0.13519467 0.05027418 0.008064434
000020 fc fd 3a be ba 47 2c 3d 69 66 6a 3d de 24 2f 3e
       -0.1826095 0.04206059 0.057226572 0.17103907
000030 80 fb 0b bd 9a 0f 0b 3e 23 0d ba bd ab 2b 32 3e
       -0.034175396 0.1358017 -0.09084537 0.1739947
000040 12 1a 24 be 8c 52 62 bd 15 73 21 be c4 b0 b2 bd
       -0.1602557 -0.055254504 -0.15766557 -0.087251216
000050 08 0c 8c 3d 74 cc d1 3d 54 51 05 3e 27 66 25 3e
       0.06838232 0.102440745 0.13019305 0.1615225
000060 db 1e 48 bd e4 7e f1 bd 38 dd 06 3d cc 10 1b be
       -0.04885755 -0.117917806 0.032925814 -0.15143126
000070 48 13 b9 bd 75 19 38 bd 4a 0d 3b be c5 d3 46 bd
       -0.09036881 -0.044946153 -0.18266788 -0.048541803
000080 22 0d d2 3c 8e 76 71 bd 56 0e c3 bd fc df 10 3c
       0.025641028 -0.058950953 -0.09524219 0.008842465
000090 fb ba c9 bd 90 6d b6 bd d1 58 f2 bd af 1a 96 bd
       -0.09850117 -0.08907616 -0.11833347 -0.07329308
0000a0 98 a0 56 3c de d7 ca bd 3e f7 fa bd c2 da 0f be
       0.013099812 -0.09904455 -0.12254189 -0.14048293
0000b0 fc c4 38 be 5e 6a 03 3d 3d c2 15 bd 7d 1b 3b 3d
       -0.18043894 0.03208386 -0.036562193 0.04568051
0000c0 ef 70 8f bd 9e 70 44 3d a3 87 0c 3e 4d d4 d0 3c
       -0.07003962 0.047958963 0.13723616 0.025491858
0000d0 19 69 1d 3e 95 18 28 3e 02 58 37 3d 6a b9 3b 3e
       0.15372123 0.16415627 0.044761665 0.18332449
0000e0 e8 9c 24 3d dc 7e 09 be d6 26 84 3c e1 86 0d 3e
       0.0401887 -0.134273 0.0161318 0.13820983
0000f0 77 35 25 3e 23 1a 09 3e 49 a8 cb 3d c7 7d 20 bd
       0.16133676 0.13388877 0.09944207 -0.03918245
000100 ac 51 93 3d 27 2e a7 3d f5 a5 d9 3d 42 b5 46 3e
       0.07193312 0.081631 0.10627357 0.19405082
000110 87 7c 47 3d 46 13 18 3e 86 1c fa bd b1 1c 8a bd
       0.048702743 0.14851102 -0.12212472 -0.06743754
000120 96 d9 25 bb bc 73 55 3e d5 f3 0a 3d 86 be 3c bd
       -0.0025306693 0.2084493 0.033923943 -0.046080135
000130 2e ae 74 3e 1c 97 70 3d 50 d1 10 3e ae 94 1a 3e
       0.2389457 0.05873786 0.14142346 0.1509578
000140 2f 74 87 3e bb 16 03 3e 4d 74 b0 3d d6 17 86 3e
       0.2645583 0.1280164 0.086159326 0.2619006
000150 a4 b8 f4 3d 06 f6 99 3e ea f7 ac 3e 1b 33 9e 3d
       0.1194928 0.30070513 0.33782893 0.07724591
000160 2f 73 06 bc 8e d3 2c 3d da d6 9a 3e 4f 40 95 bc
       -0.008206173 0.04219394 0.30242044 -0.018219141
000170 5b 85 80 3e 8d e0 7e 3e 7d 70 a0 3e 9a bf 60 3d
       0.25101742 0.24890347 0.31335822 0.054870225
000180 18 0d 92 3e 32 be 51 3e b9 c3 69 3d b6 12 16 bd
       0.28525615 0.2048271 0.05707142 -0.036638938
000190 94 40 38 3e 12 21 bf 3e 89 76 b9 3e d4 d6 97 3e
       0.17993385 0.37329918 0.36223248 0.29656088
0001a0 db db cc 3e 9c bc 9c 3e 3d 1d 66 3e 4a f9 09 3e
       0.40011486 0.30612648 0.22472091 0.13474002
0001b0 ff f4 dc 3d f0 31 47 3e 61 ae 0f be 78 8e 4c bd
       0.10788917 0.19452643 -0.14031364 -0.049940556
0001c0 0a 5d ba bc fd 0c 05 be c1 bb 13 3e 1a 4e c4 3d
       -0.022749443 -0.12993236 0.14427091 0.09585209
0001d0 b5 3a f3 3b e4 d3 b8 bd e1 57 46 3e 97 b9 cb bd
       0.00742277 -0.0902479 0.1936946 -0.09947508
0001e0 b7 2c 31 be bf 0c 38 be 7d 7e 02 be dd 83 0c be
       -0.17302214 -0.17973612 -0.12743564 -0.13722177
0001f0 55 6c 2e 3e 73 24 bb 3d 73 94 2f be e7 03 2d 3e
       0.17033513 0.091378115 -0.17146473 0.1689602
000200 e5 8d 40 be 57 ef 12 3d 6b 9a b4 bd 34 ac ff 3d
       -0.18804128 0.035872784 -0.088185154 0.12484017
000210 9e b0 c2 bd 5f c0 83 bc d1 a5 a5 3d 20 74 70 bd
       -0.09506343 -0.01608294 0.080882676 -0.058704495
000220 48 20 56 bd e6 fc 60 3d 45 f9 20 3d ad 13 05 be
       -0.05227688 0.054928683 0.039300222 -0.12995787
000230 46 d8 1e be 6e da a3 bd c8 a4 e6 3d e8 ef de 3d
       -0.1551219 -0.080006465 0.11261898 0.10885602
000240 fb 2f 4e 3e 47 b5 46 bd 25 b8 b6 bd a6 93 f4 bd
       0.2013549 -0.048512723 -0.089218415 -0.11942224
000250 4c bc 60 bd e2 58 0e bc 8f 80 29 be ac 9b ba 3d
       -0.054867074 -0.0086881835 -0.16552947 0.09111723
000260 ac 4d ee bd 3b ee f2 3d 38 00 a5 3d 9c a2 a0 3d
       -0.116359085 0.11861845 0.08056682 0.07843515
000270 5c b4 9c bc 46 9a 07 be 73 bb 21 3e 1e 44 e8 bd
       -0.01912897 -0.13242444 0.15794162 -0.11341117
000280 c1 4e 23 3e 6d ad 05 bd
       0.15948011 -0.032636095

conv1.bias f4 [6]
000000 0a 45 2d 3e e9 ae 0b bd 6a ec 32 be 33 55 e7 3d
       0.16920868 -0.034102354 -0.17472997 0.11295547
000010 0a 07 10 bc 79 b0 ed 3d
       -0.008790741 0.11605925

conv2.weight f4 [16, 6, 3, 3]
000000 2e 38 c8 bd 93 83 c3 3d 45 58 69 3d a8 d7 68 3d
       -0.097763404 0.0954658 0.056968946 0.05684629
000010 41 e2 ff bd ce 3e 92 bd 47 5f 94 3a e2 c0 a3 bd
       -0.124943264 -0.07140885 0.0011319899 -0.07995774
000020 a3 d0 57 bd a4 5e dc bb 8c c4 8c 3b 5b ca af 3d
       -0.052689206 -0.006725149 0.004295891 0.08583518
000030 d8 02 8d bd 89 73 fa bd bd 97 03 3e 76 e4 8d 3d
       -0.06885308 -0.12229068 0.12850852 0.06928341
000040 b3 80 07 3d be a0 dc bc b7 d0 7b bd fb 05 fd 3b
       0.03308172 -0.026932117 -0.061478343 0.00772166
000050 da 72 14 3e 63 03 e7 bd 8d e4 b5 3d 81 02 a4 bd
       0.14496937 -0.11279943 0.08881483 -0.0800829
000060 d5 79 f8 3c 24 7f ba 3d ab 7b 69 3c b8 62 f5 3c
       0.030331532 0.091062814 0.014250676 0.0299543
000070 e4 5d bc 3d 8b d4 ca 3c 0e 37 0b 3d 5f ee 09 3e
       0.09197596 0.024759552 0.03398805 0.13469838
000080 1d 38 96 3d b2 ee eb bd 38 2f 09 be e9 64 bf 3d
       0.073349215 -0.11520137 -0.13396919 0.09345419
000090 cd f7 04 be 6a e4 e9 3d 1e a8 d6 bd f1 48 05 be
       -0.12985153 0.1142052 -0.104812846 -0.13016106
0000a0 6a 1e eb 3d 78 e0 42 bd e0 cf d1 bd b0 0e e2 3d
       0.114804104 -0.04757735 -0.10244727 0.11037958
0000b0 fa 06 a6 bd 93 37 2d 3d d1 aa 31 bd cc 3c b5 ba
       -0.081067994 0.042289328 -0.043375794 -0.0013827323
0000c0 b3 bf b6 3d a2 2e d0 3d 62 b4 9e bd de 2a 01 3d
       0.089232825 0.101651445 -0.07749249 0.031535022
0000d0 2b b1 98 3d 86 6a 1f 3d dd ad 01 be d1 89 f8 3d
       0.07455667 0.038919948 -0.1266398 0.121356614
0000e0 0b dd 1f 3d 10 34 c4 bd 37 ca a2 3d 8e dc 34 bc
       0.039029162 -0.09580243 0.07948726 -0.011038912
0000f0 f4 e8 f1 bd 37 1a b5 3c aa b1 e2 bd bf 0d a9 bd
       -0.118120104 0.022107227 -0.11069043 -0.08254575
000100 ee d7 9e bd ce c1 09 bd 05 8f 14 3b be 58 3a bc
       -0.07756029 -0.033632092 0.0022668254 -0.011373697
000110 20 51 f0 3c bc 3a 6a 3d d2 e6 af 3d 9a 97 64 bd
       0.029335558 0.05718492 0.08588947 -0.05580864
000120 c3 83 0d 3e 1e dd 0b bd d2 30 f8 bd e9 3f a9 bd
       0.13819794 -0.03414642 -0.12118687 -0.08264143
000130 5b d9 9a 3a 36 40 2b 3c 08 4f 11 3e 1c 76 b2 3d
       0.0011814045 0.010452321 0.14190304 0.08713934
000140 c6 c4 cc 3d 74 e8 02 3d 5b ff 4f 3d a6 eb 81 bc
       0.09998469 0.031959966 0.050780635 -0.015859436
000150 c6 a1 e8 bd bc 83 9f 3d 77 44 cb bd af 09 46 3d
       -0.11358981 0.07788798 -0.09925168 0.04834908
000160 ad 67 40 3d 7d 4f 2e 3e f6 ad fd bd 7f 4e 47 bd
       0.046973873 0.1702251 -0.12386696 -0.048658844
000170 d7 66 fa 3d f4 8d f3 bd 3c 62 ef 3c 78 b8 f8 bd
       0.122266464 -0.1189231 0.029221646 -0.121445596
000180 57 f6 41 bd 46 38 a1 bc 5a 10 e3 3a 8f 4d a3 bd
       -0.04735407 -0.019680154 0.0017323599 -0.079737775
000190 05 89 dc 3d 04 f0 67 3d 84 56 93 bd 27 b6 b1 bd
       0.10768322 0.05662538 -0.07194236 -0.08677321
0001a0 eb 02 cc bc 53 63 8f 3d fe 41 d0 bd 80 52 4a bd
       -0.024903735 0.070013665 -0.10168837 -0.049395084
0001b0 b6 3d e0 bd c5 c7 03 be 79 94 c8 3d 02 36 29 bd
       -0.109492704 -0.12869175 0.09793944 -0.04131127
0001c0 8d ea ba 3d 7f 10 85 3d 89 c8 56 3d 76 9c e0 bd
       0.09126768 0.06497287 0.05243734 -0.109673426
0001d0 9e 1f 83 bc fa dc ef 3d 65 0f 91 3c 6e 53 5f bd
       -0.016006287 0.1171207 0.017707536 -0.054522924
0001e0 39 d6 f3 3d fa 9f bd 3c ef fe bc bd 84 f0 02 3c
       0.11906094 0.023147572 -0.09228312 0.007991914
0001f0 7d a4 80 bd 86 15 f8 3c e5 44 58 3d ce 90 13 3e
       -0.06281374 0.0302837 0.052800078 0.14410707
000200 4a 14 24 3d d7 8f a5 3c ed d5 b6 3d 4e 0b 84 bd
       0.04005841 0.02021019 0.08927522 -0.06447469
000210 01 69 19 3e f6 25 be 3d 64 ce 68 bd fd f1 d9 bc
       0.14981462 0.09284584 -0.056837454 -0.026604647
000220 6e 07 ae 3d a5 f2 aa 3d c4 a7 79 3c 6a 6e a2 3b
       0.08497511 0.08347062 0.015237752 0.00495701
000230 38 f9 11 3e db 0d 07 3e bc 8c 2d 3e 6e 3d 93 bd
       0.14255226 0.13188879 0.16948217 -0.07189451
000240 1a 44 0e bd c0 77 4a bd c0 a9 e3 bd da bc 00 3e
       -0.034732915 -0.04943061 -0.111163616 0.12572041
000250 65 fe b7 3d 4b f7 cc bd 0c db 57 bd 80 19 b0 3d
       0.08984069 -0.10008105 -0.052699134 0.08598614
000260 33 bb 04 3e 66 54 91 3d 72 7b fe bc f4 02 73 bc
       0.12962036 0.07096176 -0.031064723 -0.014832247
000270 91 67 03 bd 18 2a cf bd 14 fd c1 3d 56 1d 97 3c
       -0.03208119 -0.101154506 0.09472099 0.018446606
000280 8d 88 09 bd 87 6f 64 3d c5 bb ad 3d c4 13 cc 3c
       -0.03357749 0.055770423 0.0848308 0.024911769
000290 46 f1 36 3c 22 bb 25 bc d4 77 ad 3d 74 2c 95 bc
       0.0111659225 -0.010115417 0.08470121 -0.018209673
0002a0 49 79 e8 bd 0e a9 fd 3d 1e 44 91 3c 6b fb 0d bb
       -0.11351258 0.1238576 0.017732676 -0.002166475
0002b0 1f 98 58 3d 29 f3 d0 3d be 28 22 3d 7c 21 8a bd
       0.05287945 0.10202629 0.039589636 -0.06744668
0002c0 16 5e ff 3d c3 84 5e 3d d3 e4 f6 3d 3b 51 b0 3c
       0.12469117 0.05432583 0.120553635 0.021523109
0002d0 ce d3 11 3e 92 c1 98 3d 63 38 e9 ba 8f 59 df 3d
       0.14240953 0.074587956 -0.0017793294 0.10905754
0002e0 44 b9 3a 3d dc 27 8b 3d bb 83 1b 3e e8 40 2c bd
       0.04558684 0.06794712 0.1518697 -0.042054087
0002f0 9e c7 14 bd b4 00 5f 3e 2e fa 03 3e ca 43 84 3e
       -0.036323182 0.21777612 0.12888405 0.2583297
000300 76 28 0e 3e bc 29 7e 3d 79 18 f3 3d 88 fc 29 3d
       0.13882622 0.06205152 0.11869902 0.0415006
000310 35 5b 3b 3e 96 7e ec 3d e2 88 aa bc 55 a9 90 bd
       0.18296511 0.11547582 -0.020817224 -0.070635475
000320 b6 c5 98 3d 7e eb 2b bd 7f 7e 83 3c 26 39 f2 3d
       0.07459585 -0.04197263 0.016051529 0.118273064
000330 ce c5 24 3d c0 3d 91 bc dc 9e e7 3d 82 bb e7 3d
       0.040227704 -0.01772964 0.11309597 0.11315061
000340 dc 2a d5 bc d2 e0 b3 3c 3e 5b e7 bd 97 05 03 3e
       -0.026021414 0.021957789 -0.112967 0.12795101
000350 b3 0b ed bd 43 a9 bd 3d bb 82 9f bd ea ee 11 3e
       -0.11574497 0.092608 -0.07788607 0.14251295
000360 1d 54 36 bd 8e 51 be bd d2 5d 8e bd fe 42 0c be
       -0.04451381 -0.09292899 -0.069514886 -0.1369743
000370 94 4b 96 bd 4d bf af bd 03 48 1c bd 9a f9 f5 bc
       -0.07338634 -0.085814096 -0.038154613 -0.030026246
000380 0a b3 91 3d 00 84 66 bd 48 ba 44 bd b7 c6 e9 3c
       0.07114227 -0.05627823 -0.048029214 0.028537137
000390 11 4c 08 3d ff 89 c5 bd 9b ce f6 bd a4 ea f2 3d
       0.033275668 -0.09645461 -0.120511256 0.118611604
0003a0 3f 6c a6 bc b9 e7 47 3d bb 94 e4 bd bc 90 34 bd
       -0.020315288 0.048804972 -0.111611806 -0.044083342
0003b0 a7 c6 c5 bd 52 88 5f 3d ef 2c a9 3d 14 cd c6 3d
       -0.096570306 0.054573365 0.082605235 0.09707084
0003c0 3b 67 5d 3d 75 48 2d bd 9d 33 bf 3d aa 42 ea 3d
       0.054053526 -0.04230543 0.09336016 0.114384964
0003d0 93 2f 06 bd 18 ab 8f bd d4 1c 2f bc 2e bc 34 3e
       -0.032760214 -0.070150554 -0.0106880255 0.1764991
0003e0 c8 f8 23 3e df 2d b6 bb c4 e1 39 3d 12 03 fc 3d
       0.16012871 -0.0055596675 0.045381323 0.12305273
0003f0 95 d5 40 bd 9e 23 db bc e8 c2 b7 3d 69 77 08 3c
       -0.047078688 -0.026750382 0.08972722 0.008329251

conv2.bias f4 [16]
000000 af e0 f2 bc f3 71 66 3d 6f 91 ae bd 52 74 af 3c
       -0.029648153 0.056261014 -0.08523833 0.02141777
000010 e3 e0 67 3d da 26 a7 bd 49 c3 00 3e 0c 93 bb 3a
       0.056610953 -0.08161707 0.12574495 0.0014310791
000020 22 41 d9 bd a7 15 32 3d 2f bb c0 bd 78 79 f0 bd
       -0.10608126 0.04347768 -0.094107024 -0.11741918
000030 8d 19 09 3c 18 30 b7 3d d2 5a 09 3e 18 09 f7 3c
       0.008367908 0.0894472 0.13413551 0.030155703

fc1.weight f4 [80, 1936]
000000 80 e0 b3 3c df 02 bc 3c 28 31 81 bb 62 bc a0 ba
       0.021957636 0.022950588 -0.0039426275 -0.0012263174
000010 76 e9 ae bc af da cf bb ff 8f 93 3c 61 40 06 bb
       -0.021351557 -0.006343208 0.018012999 -0.002048515
000020 99 b2 02 bb 81 c4 08 bc 0e bf 16 39 f0 1e 99 3c
       -0.0019942878 -0.008347631 0.00014376288 0.01869151
000030 9e bf 53 bc 7f 0c 4e 3c 2c d3 3e bc 37 c9 6a 3c
       -0.012924103 0.0125762215 -0.011647027 0.0143302
000040 cf 09 58 3b ca ac fa bb 52 3f 81 3c 91 53 9e bc
       0.003296483 -0.0076499926 0.015777264 -0.019326957
000050 0a 80 4d 3c 64 ba 1d bc f5 59 68 bc 1a d0 8e bc
       0.012542734 -0.0096269585 -0.014181604 -0.017433215
000060 c2 ee 52 bc 57 1a 11 b9 94 5d 3e 3c bd cd b4 3a
       -0.012874307 -0.0001383809 0.01161899 0.0013794225
000070 af 81 a8 bb 4c f0 e1 bb c6 37 b3 3b f2 b1 8c 3c
       -0.0051424126 -0.0068951007 0.005469295 0.017174695
000080 ca 34 83 bb 2a a2 2a bc 14 b6 7d bb 3e 15 86 bc
       -0.0040040957 -0.0104146395 -0.0038713263 -0.016367551
000090 8b 00 1d 3c a5 ef 27 bc 9a 87 18 3c 7e 6d 55 bb
       0.009582649 -0.010250007 0.009309674 -0.0032566483
0000a0 27 f5 8b 3c 54 6c 31 bc 84 69 75 bc 93 58 87 3b
       0.017084671 -0.01082905 -0.01497877 0.004130432
0000b0 67 89 33 3c 6e 7f 84 bc 30 24 56 bc 81 1c 8c 3c
       0.010958052 -0.016174044 -0.013070151 0.017103435
0000c0 af b0 a4 3c 30 0a 64 3c 29 42 66 3c 4f d9 11 3c
       0.02010378 0.0139184445 0.01405386 0.008901908
0000d0 65 5a 95 3c 5a ea 94 3b e0 d3 85 bc 87 ad 2f bc
       0.01823158 0.0045445384 -0.016336381 -0.0107225245
0000e0 53 fb 45 3c df 51 60 b9 28 70 a1 3c 4a 03 c5 3c
       0.012083846 -0.00021392804 0.0197068 0.02404942
0000f0 71 c3 94 3c 91 28 89 bc 65 35 13 bc ea d9 97 3c
       0.0181596 -0.016742976 -0.008984898 0.018536527
000100 69 83 92 3b c4 05 8e 3c c0 8a 3c 3c be 94 b4 bc
       0.0044712317 0.017336734 0.01150769 -0.022043582
000110 68 3c ab 3b fd b1 51 3b 6d 08 7b 3a 40 ee 9c 3c
       0.005225707 0.0031996958 0.00095761457 0.019156575
000120 42 1a 80 bc 41 8b a5 3c 5b 57 70 3c c1 98 c1 3a
       -0.01563752 0.020208003 0.014669265 0.0014770256
000130 f4 52 9c 3c d2 90 de 3b f0 c1 ee bb d1 9d 1b bc
       0.019082524 0.0067921663 -0.0072863027 -0.009498076
000140 85 67 98 3c 68 d8 55 bb 41 27 cf 3a 2e 94 c8 bb
       0.01860405 -0.003263021 0.0015804545 -0.00612118
000150 61 c0 40 3c e0 65 6c 3a 5a ce ae bb bd 45 55 bc
       0.011764617 0.0009017866 -0.0053346576 -0.013017115
000160 67 2f ab 3c 04 7e cd 3c 05 94 8b 3c e7 c9 51 bb
       0.020896627 0.025084503 0.017038355 -0.0032011212
000170 e7 6c 6f 3c 78 a1 80 3c cf 70 11 bc 29 87 8f bc
       0.014613367 0.015701994 -0.008876993 -0.017520504
000180 1b e7 a4 bc 35 0f 1e bc 4b 6b 83 bc af 31 0b bc
       -0.02012973 -0.00964718 -0.016042372 -0.008495732
000190 29 d1 a6 bb 57 e2 65 bc 9c 5d 5f 3c 1e 65 aa 3c
       -0.005090852 -0.014031014 0.013633158 0.02080017
0001a0 a3 bb af 3c 90 ba 64 3c cb d6 1c 3c 77 96 98 bc
       0.021451777 0.013960496 0.009572695 -0.018626435
0001b0 fd b3 1b 38 26 ab 66 3c 1a 95 ca 3b 2a 36 17 3c
       3.7122507e-05 0.014078891 0.006182325 0.009229222
0001c0 12 ba b3 3c a3 8b 44 3b d5 f2 95 bb dd 48 b7 3c
       0.021939311 0.0029990457 -0.004576067 0.022373611
0001d0 e9 29 96 bc fe 66 02 3b 1d 1f d7 3b 9f 52 a0 3b
       -0.018330531 0.0019897814 0.0065649883 0.0048926617
0001e0 a6 c1 ad bc 2f 54 45 bc d0 fe b2 3c b5 85 59 3a
       -0.021210503 -0.012043997 0.02185002 0.0008297817
0001f0 73 d5 21 3c 15 f5 2a 3c b1 08 4b 3c 66 48 a4 3c
       0.00987755 0.010434409 0.012392209 0.020054054
000200 0d 7b 32 3c 8c 54 6c bb 72 94 dd bb 54 96 ad bc
       0.010893595 -0.0036061136 -0.006762081 -0.021189846
000210 ef 6d 1d 3c a3 18 b6 3c b5 f7 b2 3c 19 0e 4e bc
       0.00960873 0.022228545 0.021846632 -0.012576603
000220 c4 61 11 3c a9 c3 21 bc 1a f2 a8 bc 56 a2 ad 3c
       0.008873407 -0.009873309 -0.020623256 0.021195572
000230 49 ed 19 3c c2 89 9e bc 60 1a 84 3b ed 78 ae 3c
       0.009394952 -0.019352797 0.0040314645 0.021297896
000240 5d 06 96 39 85 ca c1 3b f8 04 4c 3c 98 c7 27 3c
       0.0002861497 0.005914035 0.0124523565 0.010240458
000250 f9 93 61 3b 34 0d 82 3b 75 d3 2d bc 4e 2f 2d 3c
       0.0034420474 0.003968859 -0.010609497 0.01057036
000260 81 dc 8a bc 36 66 ec 3b d9 85 8f bc b0 22 d4 ba
       -0.016950848 0.007214333 -0.017519878 -0.0016184654
000270 dc 62 64 3c 93 43 30 bc 95 90 dc bb d6 2c df bb
       0.013939586 -0.010758298 -0.0067311027 -0.006810765
000280 57 8f 46 bc 67 54 d4 bb 2b 3e 67 bc 51 7b 9e bc
       -0.012119136 -0.006479788 -0.014113943 -0.019345911
000290 a7 73 4e 37 56 ed 06 bc 67 3d a1 3b c2 86 87 3b
       1.2305484e-05 -0.008235296 0.00492065 0.0041359374
0002a0 4f 82 e4 3a 62 87 a2 3a 6e cc d1 3b a5 b5 36 3c
       0.0017433855 0.0012399966 0.0064025437 0.011151706
0002b0 3b 10 7d ba 58 11 c8 3b c2 58 af 3b ca d0 8e b9
       -0.00096536026 0.006105583 0.005351157 -0.0002723991
0002c0 c1 65 77 3b c5 35 92 3c 91 bd 38 bb 30 e4 14 3b
       0.003774986 0.017847905 -0.0028189162 0.0022719018
0002d0 17 6c ca bb d0 52 84 3c 33 a1 e8 3b 59 b8 d4 ba
       -0.006177436 0.01615277 0.0070992946 -0.0016229256
0002e0 30 51 8d bc 63 ca 9d bc 00 8c 7b 3b 1a d9 c1 3c
       -0.017250627 -0.019261545 0.0038383007 0.023663092
0002f0 db 9f 17 bc 22 ea 56 3c 16 57 88 bb 45 0e f6 3b
       -0.009254421 0.013117345 -0.004160772 0.0075090253
000300 70 88 1c 39 35 8d 17 3b cb 48 2b 3c 98 fd 43 3c
       0.00014928146 0.0023124937 0.010454367 0.011962317
000310 ab 0d 54 3b 3b e5 b5 3c 15 c8 38 bc 67 55 56 3b
       0.003235678 0.022204032 -0.011278172 0.0032704712
000320 a7 52 9c bc 24 bf 97 bc f5 c3 d3 bc e0 d2 84 bb
       -0.01908238 -0.01852376 -0.025850276 -0.0040534586
000330 0b 94 8d 3b bc cd 14 bb f3 86 f6 bb 83 af 26 bc
       0.0043206266 -0.0022705635 -0.0075234114 -0.010173681
000340 bd de 0d 3a fb d6 3b bc b7 83 ba bb 96 49 9a 3c
       0.0005411914 -0.01146483 -0.005691971 0.018833917
000350 dd ec 58 3c 0d 0e cc 3b 12 19 c8 bb f6 dd ac bc
       0.013240066 0.006227261 -0.0061065042 -0.021101933
000360 95 97 1e bc cb 71 42 bb 9d 47 2c bc a3 48 17 bc
       -0.009679695 -0.0029669877 -0.010515121 -0.009233627
000370 46 2f 9e bb c9 fd 98 3c 42 0c c9 b9 81 02 8b 3c
       -0.004827413 0.018675702 -0.0003834684 0.016968967
000380 55 7e 57 bc 68 20 5c 3c 96 da 9d bc 9f 33 a7 bb
       -0.0131526785 0.013435461 -0.019269269 -0.0051025893
000390 09 2e c2 bb 0a 04 8b bc 64 de 98 bc b4 b8 3d bc
       -0.005925898 -0.0169697 -0.018660732 -0.011579681
0003a0 34 8b e5 bb 99 66 48 bc 81 97 ce bc a0 30 34 3b
       -0.0070051197 -0.012231492 -0.025218727 0.0027494803
0003b0 30 15 59 3c 02 0e 17 3c 08 a2 b0 3c 02 72 5a 3b
       0.01324968 0.009219648 0.021561638 0.0033332114
0003c0 a1 f2 b9 3c b4 e4 a5 ba 06 34 05 bc f7 7b 0f 3b
       0.022698702 -0.001265666 -0.008130079 0.0021893957
0003d0 ed ae 10 bc 21 6c 14 bc fb 4e 49 3b 4b 8d 3c bc
       -0.008830768 -0.009058983 0.0030717242 -0.011508296
0003e0 17 78 45 3c 44 96 5b bc c1 f6 8b bb d7 65 f2 bb
       0.012052557 -0.013402525 -0.0042713587 -0.007397394
0003f0 6a 22 db bc 49 13 27 3c da 2e 9c bc 8b 91 28 3c
       -0.026749808 0.010197469 -0.01906531 0.010288606

fc1.bias f4 [80]
000000 4e ee 45 3b 6e 6d ab 3c a2 7b c5 3c ea bc 85 3c
       0.0030201855 0.020926204 0.024106804 0.016325433
000010 88 5b ce 3b 8a ba 08 3c a5 cb 37 bb 21 cf a8 3c
       0.0062975325 0.008345256 -0.0028044966 0.02060658
000020 6c 42 83 3b 98 bd 2a 3c 21 b5 28 3c 79 6c c7 3b
       0.004005721 0.010421179 0.010297091 0.006085929
000030 66 61 40 bc 60 27 89 3c c8 5b a5 3c c5 2d f0 bb
       -0.011741972 0.016742408 0.020185366 -0.007329675
000040 44 73 ec ba fc b9 2d 3b 15 12 4f bc 22 98 08 3d
       -0.0018039723 0.002650856 -0.012638588 0.03334821
000050 f7 0b 5f 3c 88 99 41 3c 98 83 f3 bb 3d 97 2a 3c
       0.0136136925 0.01181639 -0.0074314587 0.010412035
000060 55 0b b8 bc 38 cb 0c bc 1a e4 09 3c 74 c8 e3 bb
       -0.022466341 -0.008593373 0.0084162 -0.006951386
000070 3e 6a 37 3c b1 b3 46 bc 60 b4 e5 ba dc d8 f2 ba
       0.011194764 -0.012127803 -0.0017525069 -0.0018527764
000080 28 69 22 bc 34 ff 64 bc 1c 80 db 3b ff da 41 3c
       -0.0099127665 -0.013976861 0.0066986214 0.011831998
000090 82 ed c9 bc cd 76 e7 3a 54 14 a0 bc 0f 84 f1 bb
       -0.024649385 0.0017659307 -0.019540943 -0.007370479
0000a0 06 3e 96 bc 63 d6 ef bb 5c 80 6d 3c 0e c5 8a bc
       -0.018340122 -0.007319258 0.014495935 -0.016939666
0000b0 16 1a 93 3c ad 30 9e bb 4e 9d 9f 3b ad c4 2c bb
       0.017956775 -0.00482758 0.004871047 -0.0026362345
0000c0 24 ed 8b 3c c5 11 63 3c 7a 14 ce 3b 14 7a 94 bc
       0.01708085 0.013859217 0.006289062 -0.018124618
0000d0 bb 8f c6 3c 6a d7 c2 bc b4 71 b0 3c 23 e3 98 bc
       0.024238458 -0.023784358 0.021538593 -0.018662995
0000e0 a8 53 26 bc 23 ac 9a bc 68 25 8d bc e9 cd c1 3c
       -0.010151781 -0.01888091 -0.01722975 0.023657756
0000f0 48 a5 b9 3c 15 90 51 bc 88 f6 a8 3b 87 89 23 ba
       0.02266182 -0.0127906995 0.005156342 -0.000623845
000100 ec 99 96 bc 57 1a 9e 3b 17 54 7c bc 74 6d b6 bb
       -0.018383943 0.0048249173 -0.015400908 -0.005567247
000110 ce b4 5e bb 0e 88 85 ba f9 83 b5 3c 26 1f ac 3b
       -0.003398228 -0.0010187642 0.022157656 0.0052527366
000120 6f e4 91 bc 4a 7e b3 3a 9a 8e bf bc b3 b6 85 bc
       -0.017809121 0.0013694253 -0.023383427 -0.01632247
000130 62 2c 7d bc 7f cf 92 bc d3 5c 5d bc 0d 9b 5a bc
       -0.015452476 -0.017921207 -0.013510901 -0.013342631

fc2.weight f4 [20, 80]
000000 01 44 e9 bd c0 81 c2 bb 7a 6f a9 bd 14 49 c2 3d
       -0.11389924 -0.0059358776 -0.082732156 0.09486595
000010 55 06 26 bd 2c 05 02 3e 3d e4 e0 3d ed 84 39 3d
       -0.040533382 0.12697285 0.10981033 0.045292784
000020 54 d7 06 bd c0 bc cb 3c 44 f4 ca 3d 16 f5 ac 3d
       -0.032920197 0.024870276 0.09909871 0.08445184
000030 c4 0a 35 3d 29 7b 85 bc d8 50 e0 3d 95 66 15 3d
       0.04419972 -0.016294079 0.1095292 0.036474783
000040 e1 33 55 bd 68 c8 9c 3d f1 20 9c 3d 4d cd 0b 3d
       -0.05205143 0.07655412 0.076234706 0.034131337
000050 2c df f4 bb 88 f3 bf 3c c4 99 b0 3d 4c 9f 43 3d
       -0.007472893 0.023431554 0.086230785 0.04775934
000060 48 40 cd 3c 2f 76 bb bd 8f ab a0 bd de ca 81 bd
       0.025055066 -0.09153401 -0.07845222 -0.06337522
000070 1e 0d a8 bd 5b d2 46 3d a0 72 32 bb c8 5a 89 3d
       -0.08205627 0.048540454 -0.0027228966 0.06706768
000080 84 d1 12 be c3 3b cb bd 19 dc d3 bc b8 74 e0 bc
       -0.14337736 -0.09923508 -0.025861787 -0.027399406
000090 c5 f8 d9 3d e7 e0 95 bd 27 5c ec bc 57 1b ce bd
       0.10643152 -0.07318287 -0.028852535 -0.100638084
0000a0 ab be 2a bd 8e 4c 8b 3d 44 bb 9b bd e3 53 a9 3b
       -0.04168574 0.06801711 -0.076040775 0.005167471
0000b0 c3 fd 07 be cc a4 cf 3d 74 33 10 bc 08 1d e1 3d
       -0.13280396 0.101388544 -0.00880133 0.109918654
0000c0 56 b0 92 3d 87 80 7f 3d 0f bd 1e bc 9f c7 97 3d
       0.0716254 0.062378433 -0.00968863 0.074111216
0000d0 59 1c 05 be 6f 26 f4 3d f6 52 ce 3d f4 90 e3 bb
       -0.12999095 0.11921393 0.10074417 -0.00694477
0000e0 45 25 fe 3d 11 9a 2f bd 2e fd 94 bd 97 d6 fe bd
       0.12409452 -0.04287154 -0.07274853 -0.124432735
0000f0 93 5f 9e bd 8f 8a a8 bd c5 c6 44 bd f2 f8 0d 3c
       -0.07733073 -0.08229553 -0.048041124 0.00866531
000100 74 68 da bd e7 78 16 bd c4 dc ab 3d 5d 7c b6 bc
       -0.10664454 -0.036736395 0.08391717 -0.022276098
000110 a6 34 07 3c 36 13 c4 bd ab 0b ae bc 66 a2 fc 3b
       0.008252298 -0.09573977 -0.021245798 0.007709789
000120 28 0e 4e 3d 4b ed 8f 3d c6 8d e3 3c ad 21 9e 3d
       0.05030647 0.07027682 0.027777564 0.07721267
000130 c8 15 90 3d 05 c7 2a bd 5c dc 28 bd ca d5 b7 3d
       0.070354044 -0.041693706 -0.041225776 0.08976324
000140 b5 02 92 bd ab 02 98 bd 44 64 3a 3d 7d f1 cf bc
       -0.071294226 -0.07422384 0.045505777 -0.025383705
000150 98 90 cd 3d dc 74 b2 bb 84 f3 02 bd e2 aa be bd
       0.10037345 -0.0054460596 -0.031970516 -0.09309937
000160 79 dc d4 3d 00 60 2e bb 3f 1b dd bc 94 37 28 3d
       0.10393614 -0.0026607513 -0.026990531 0.04106863
000170 78 09 3b bc 0b c3 92 3d 48 c6 af 3c 9f df 65 bd
       -0.011415832 0.07166108 0.021456853 -0.056121465
000180 0c 00 b7 3d a0 77 80 bb d0 d0 5d 3c b2 bc 7f 3d
       0.08935556 -0.0039205104 0.013538554 0.062435813
000190 ae a3 64 bd a7 89 db bd 5e 8a 8b 3d 18 3f bb 3d
       -0.05582016 -0.107196145 0.06813501 0.091428936
0001a0 1e b9 b4 bd 57 19 d7 bd b4 b8 33 bd b6 c4 51 bd
       -0.08824371 -0.1050288 -0.04387732 -0.05121299
0001b0 ef 0c a8 3c 46 9a d4 bd 40 6f 70 3d 9d 75 7f 3d
       0.02051398 -0.10380988 0.058699846 0.062368024
0001c0 14 b5 f9 bc 6f 07 f7 bc d2 9f b5 bd 0f 6c e3 3c
       -0.030481853 -0.030154912 -0.08868374 0.027761487
0001d0 9d ea 45 3d 4f c4 4b bc 4f 57 be 3c e6 2b 59 bd
       0.048319448 -0.01243694 0.023234991 -0.05302038
0001e0 94 45 82 3c 99 ca e9 bd 50 23 eb bc 7f 93 d7 3d
       0.015902318 -0.114155956 -0.028703362 0.105261795
0001f0 ad 40 d4 bd 80 bb 42 bd 74 b7 3e bd db 27 90 bd
       -0.103638984 -0.047542095 -0.046561673 -0.07038852
000200 40 1f 9d 3d 6f 30 b0 3d 29 14 63 3d 7a 6a 9b 3c
       0.07671976 0.08602988 0.055439148 0.01897167
000210 26 a0 e0 bd cd e8 5a bd 8c 4c 41 bd ed 13 bc 3d
       -0.10968046 -0.053444672 -0.04719214 0.09183488
000220 d7 aa b2 3c c1 0c 26 bc f9 e8 b7 3d 3f 91 71 3c
       0.021809978 -0.010134877 0.08979983 0.014744102
000230 80 79 a5 3b 3a 0b 89 bd 80 03 f8 3b 7f 98 42 bd
       0.0050498843 -0.066915944 0.0075687766 -0.047508713
000240 28 08 9d bd b1 a4 c0 3d 92 5d 6d bc 93 c9 56 3d
       -0.07667571 0.094064124 -0.014487641 0.05243833
000250 c4 a3 34 3d 93 00 84 bd c4 b2 74 3d ec a9 8d bc
       0.04410149 -0.06445422 0.059740797 -0.01729294
000260 07 4b 2c bb f8 4d a0 3d 5f c4 b1 bd 24 c0 5a 3c
       -0.0026289837 0.07827371 -0.08680033 0.013351474
000270 2d 59 cf 3d a1 8b c2 3d 2c 1b fc 3c 6e ef 22 3c
       0.10124431 0.09499288 0.030774675 0.00994478
000280 fd 3e 0c bd 22 81 d4 3d 41 ea 20 3d 7b 6b e2 bd
       -0.034239758 0.10376193 0.039285902 -0.110556565
000290 eb 23 6c 3d c8 6b 20 bc c3 90 6f 3d 02 49 b5 bd
       0.05765144 -0.009791322 0.058487665 -0.08851816
0002a0 d8 bf 3b bc f4 ec 04 3d d4 0f 83 bc 12 8e d5 3d
       -0.011459313 0.03245254 -0.015998758 0.104274884
0002b0 a8 d1 19 bd 47 54 c5 bc 64 41 6f 3d 74 92 e2 3d
       -0.03755346 -0.024088038 0.05841197 0.1106309
0002c0 e2 e1 a4 bd c6 4e d6 3d 96 43 1d bd 0c 12 78 3c
       -0.08050896 0.104642436 -0.038394533 0.015141021
0002d0 18 9e d6 3d 88 b3 48 bd 68 72 54 3d 99 53 72 bd
       0.10479373 -0.04899934 0.05186692 -0.059161756
0002e0 36 b6 81 bd c5 d3 94 3d d1 58 d0 bd 14 66 ab 3d
       -0.06333582 0.07266954 -0.101731904 0.08369079
0002f0 c4 6f b0 3d 25 ca 3b bd e4 50 c4 bc f0 cf 27 3c
       0.086150676 -0.045847077 -0.023964353 0.010242447
000300 24 96 80 3d b4 2b d2 bd 1a d2 0a bd 30 35 92 3b
       0.06278637 -0.10262242 -0.033891775 0.004461907
000310 04 5e d5 bd fe 80 d6 bd ea 7d 8b 3d db 65 01 bd
       -0.10418323 -0.10473822 0.068111256 -0.031591278
000320 4b 93 2b bd ba 21 0c bd 62 cb a9 3d 36 9a 8a bd
       -0.041888516 -0.03421185 0.08290745 -0.06767695
000330 62 53 68 bd dc cd c5 3d ce cc bc 3d 34 9b 38 3d
       -0.056720145 0.09658405 0.09218751 0.04506989
000340 fc 3e 75 bd 16 05 5e 3d a3 a5 98 3d a7 ee bb bd
       -0.05987452 0.05420407 0.07453468 -0.09176379
000350 00 37 8f 3c 78 70 0f 3c 6c f6 a0 bc 3f 15 31 3c
       0.01748228 0.008754842 -0.019648753 0.010808288
000360 d6 ae d0 bd c6 1f 6e 3c 31 be b0 3c cd 81 dd bd
       -0.10189597 0.014533943 0.021575065 -0.10815773
000370 47 9a 75 bd e8 dd 5a 3d 06 3a ba bb 20 48 03 3d
       -0.059961583 0.053434283 -0.0056831865 0.032051206
000380 c6 b9 01 bd a2 f7 68 3d b0 89 39 bd 6e 0f 31 bd
       -0.031671308 0.056876786 -0.045297325 -0.043227606
000390 de 34 32 3d 8a 85 1f bc 80 eb b6 3c 16 79 82 3d
       0.04350745 -0.009736428 0.022329092 0.063707516
0003a0 7e fd d6 bd a4 10 c6 3d 9a f6 e4 3b 7e 20 63 3d
       -0.104975685 0.09671143 0.006987405 0.05545091
0003b0 66 19 b7 3d 47 34 28 bc 06 4d e3 bd 16 52 4f bc
       0.08940391 -0.01026637 -0.110986754 -0.012653848
0003c0 09 c9 7d 3d f0 b7 ee 3b 0b ac 9a 3c 64 ec e1 bd
       0.0619593 0.0072851107 0.018880865 -0.11031416
0003d0 98 ba ef 3c 17 50 a2 3d 45 10 ae 3d 07 e3 24 3d
       0.02926378 0.07925432 0.08499197 0.040255573
0003e0 12 35 72 3d 90 04 ce bb 1d d2 c6 3b 4e 65 03 3e
       0.059132643 -0.006287165 0.006067528 0.12831613
0003f0 e8 bb d3 bc bd e7 62 bd 18 9a 74 3d a8 eb 6c 3d
       -0.025846437 -0.055396784 0.059717268 0.057841927

fc2.bias f4 [20]
000000 b8 7b 7a 3d a5 64 99 bc 4a d6 5c 3c 02 03 1c 3d
       0.061153144 -0.018724749 0.013478825 0.038088806
000010 53 16 ad 3b 80 31 59 3c 7e 30 7c bd 82 60 e7 3d
       0.0052822023 0.013256431 -0.061569683 0.11297704
000020 f6 58 c3 bd 77 91 14 3d 96 31 fc 3d 2e ac 4a bd
       -0.09538452 0.03627154 0.12314145 -0.04948061
000030 13 d1 ac b9 85 7b 89 3d 1f 47 6f 3d c7 c3 aa bd
       -0.0003296217 0.067130126 0.058417436 -0.08338123
000040 1f 53 8b 3d 36 7d 0c bd 0e bd b9 bd fc a0 67 3d
       0.068029635 -0.034299098 -0.090692624 0.05655001

fc3.weight f4 [3, 20]
000000 c7 a4 85 be 7f 97 5e 3e ac 27 23 be 3d 90 24 bb
       -0.26102278 0.21737479 -0.15933102 -0.0025110387
000010 6c 83 92 be b6 a8 aa be 31 05 28 3e d8 40 86 be
       -0.28615892 -0.3333184 0.1640823 -0.26221347
000020 b9 59 18 3c d1 22 96 be 3f 06 c0 3e be 32 19 3e
       0.009298735 -0.29323438 0.37504765 0.14960763
000030 68 9b 45 be dd 53 b1 3e a7 bc 8f 3d 08 f4 ad 3c
       -0.19297564 0.34634295 0.070184045 0.021234527
000040 74 06 16 3e 70 54 9d 3c a4 ba b1 3d 91 f5 5e bd
       0.14650899 0.019205302 0.08678177 -0.05443341
000050 74 a6 24 3e 5c e9 13 3d db c6 f4 bc f2 29 85 be
       0.16079122 0.03611122 -0.029879978 -0.26008564
000060 7e 0d 25 3e 0f 09 6c 3e 40 9c 03 be 06 ed 91 3e
       0.16118428 0.2305033 -0.12852573 0.28501147
000070 10 8a 2f 3e 66 b1 0b be c2 c1 87 be 75 e1 81 be
       0.1714251 -0.13641891 -0.26515013 -0.25367323
000080 4e 13 65 be c1 78 6c 3e b2 ec 34 be f2 e2 43 3e
       -0.22370645 0.23092939 -0.17668417 0.19129542
000090 72 ab 64 3d f3 79 19 be 60 de 5f bd a2 e3 87 3d
       0.055827565 -0.14987926 -0.054655433 0.066352144
0000a0 30 f6 83 3e c3 e3 aa bd 0b 53 63 3e d7 dd c1 3e
       0.25773764 -0.08344223 0.22199647 0.37864563
0000b0 39 75 46 3d 08 c9 11 3e 51 85 95 3d be 80 4e be
       0.048451636 0.14236844 0.07300819 -0.20166299
0000c0 aa b5 2e 3e 0d af 09 3e 70 2b 74 be 9b 16 0f be
       0.17061487 0.13445683 -0.23844695 -0.13973467
0000d0 7e a5 c9 3e b5 85 a5 be 68 fa cc 3b 6a cf 37 be
       0.39384073 -0.32328573 0.0062554367 -0.17950216
0000e0 ec 5b ba be 38 41 4b 3e ae a4 44 be d2 06 33 be
       -0.36398256 0.19849098 -0.19203445 -0.1748307

fc3.bias f4 [3]
000000 6b 38 bb bb 2e 96 e3 3d 0c d3 55 3d
       -0.0057135127 0.11112629 0.052203223
